src/gan_implementations/wassertein_gan_gp/byte/models/Conditional_GAN_byte_features/generator/generator.pt (torch, 858903 bytes, 6 tensors)

weight f4 [256, 320]
000000 58 0e 3d bd 50 00 94 3b 1a 37 5c bd 08 7a 46 bc
       -0.046156257 0.004516639 -0.053763486 -0.012114055
000010 4e b9 08 3d 10 1e 62 bc 30 10 1e bd c8 d4 5c bd
       0.033379845 -0.013801113 -0.038589656 -0.05391386
000020 48 21 94 3c 3a 21 da bc 90 c9 92 3b 8e b6 12 bd
       0.018082276 -0.026627172 0.0044795945 -0.03581863
000030 e0 ec 3a 3b d6 3e 10 bd 18 d7 a7 3c 16 f5 81 bc
       0.0028522536 -0.035216175 0.020488307 -0.015863936
000040 56 ea 45 bd 00 9e 34 39 56 d8 52 3d b0 67 bb bc
       -0.048319183 0.00017224997 0.051475845 -0.02287659
000050 98 4a 07 bc 4f 28 36 bd 00 3c 4d 3c 94 6b ab 3c
       -0.008257531 -0.044472035 0.012526512 0.02092532
000060 af 3f 5f bd 99 96 05 bd 20 50 8a bc 10 40 d8 3b
       -0.054504093 -0.032614324 -0.01688391 0.0065994337
000070 b8 4d 7c bc 32 a9 38 3d c8 da 74 3c 2a 4b 47 3d
       -0.015399389 0.045083232 0.01494474 0.048655666
000080 4c 51 ef 3c 6c d9 fc 3c da 31 01 bd d9 4c 0c bd
       0.02921357 0.030865394 -0.031541683 -0.034252975
000090 7c 61 32 bd ac 13 c5 bc a5 b9 ea bc 50 b3 b2 bb
       -0.04355 -0.024057232 -0.028652975 -0.0054535046
0000a0 9c 07 18 bd e0 86 cd 3a 28 ab de 3c 50 36 8a 3c
       -0.037116632 0.0015680455 0.027181223 0.016871601
0000b0 98 16 8f bc 70 03 4f bd 04 83 de 3c 0c 6b fa bc
       -0.017466828 -0.050540388 0.027162082 -0.030568622
0000c0 ba bb ba bc 94 a7 37 3d b6 0e 62 bd 72 47 5c 3d
       -0.022794593 0.04483755 -0.05518981 0.053779073
0000d0 bc fa 18 bd 72 5e 49 3d 2f d2 34 bd c6 70 5a 3d
       -0.037348494 0.049162336 -0.04414576 0.053330205
0000e0 66 8a ce bc a4 7e 52 bc 86 98 2b 3d a9 e8 3e bd
       -0.025212478 -0.012847576 0.041893505 -0.0466086
0000f0 53 a3 ca bc 3c df 97 3c a1 19 5d bd ae bf 0a bd
       -0.024736082 0.018539064 -0.05397952 -0.033874206
000100 6c 06 49 3d be b9 2e 3d 28 46 0c bd 3c 96 e7 3c
       0.04907839 0.042657606 -0.034246594 0.02826988
000110 25 62 38 bd 4f 0b 53 bd 70 a9 43 3c f0 5d 04 bc
       -0.045015473 -0.051524457 0.0119422525 -0.008079037
000120 54 de 1c bd f6 0c 56 bd fe 90 4d bd 24 ab 80 bc
       -0.038297966 -0.052258454 -0.050187103 -0.015706606
000130 f4 84 56 3d 10 3b 0b bd b8 4b 63 3c d0 88 93 3b
       0.052372888 -0.033991873 0.013873033 0.0045023933
000140 b2 22 4b bd 98 de 2e 3c 8c 23 0f 3d 52 f4 12 3d
       -0.049593635 0.010673188 0.03494601 0.035877533
000150 18 90 b3 bc 40 e8 c8 bc 60 ca 1d 3d b8 35 1d 3d
       -0.021919295 -0.024524808 0.038523078 0.03838131
000160 58 f4 fc 3c 6c cf 1b 3d 00 03 43 bd 46 17 08 bd
       0.03087823 0.03803961 -0.047610283 -0.03322532
000170 76 ea 21 3d c4 72 3f 3d d6 8c f7 bc 18 cd 7a 3c
       0.03953024 0.04674031 -0.030218523 0.015307687
000180 94 3c 5b 3d 25 c7 39 bd c5 af 37 bd b0 0d 5d 3d
       0.05352457 -0.045355935 -0.04484536 0.05396813
000190 b3 bc fe bc b5 4a 0e bd 04 56 f1 3c 22 89 07 3d
       -0.031095838 -0.034739215 0.02945996 0.033089764
0001a0 68 50 d1 3b 5c 9f a0 bc f8 62 2b 3d ce 80 37 3d
       0.006387759 -0.019607238 0.04184243 0.044800572
0001b0 90 cf 4b bd f0 98 20 3d b0 f5 da 3c e8 e4 c1 3b
       -0.049758494 0.039208353 0.026728481 0.0059171803
0001c0 28 14 df 3c 18 ca ef 3c 9e 87 24 bd a4 76 b1 3c
       0.027231291 0.02927117 -0.040168397 0.021663018
0001d0 ba 58 63 bd a0 f8 56 3c 84 be ad 3c 9a 40 97 bc
       -0.055504538 0.0131208 0.021209009 -0.018463422
0001e0 d5 6f 0a bd ee 32 32 3d a0 a4 34 3d 48 86 b2 bb
       -0.033798058 0.0435056 0.04410231 -0.0054481365
0001f0 28 5a 47 3d 8e cf 34 3d ee b1 48 3d f5 3d fe bc
       0.048669964 0.044143252 0.048997812 -0.031035403
000200 6a 39 a3 bc 48 6c 3a 3c f4 a6 76 bc e4 52 58 3d
       -0.019924838 0.011378355 -0.015054453 0.052813426
000210 00 68 f2 bc 30 ff 71 bc 50 67 16 3c f0 ba 2d bd
       -0.029590607 -0.014770314 0.009179905 -0.042414606
000220 90 1e 12 3d b3 61 64 bd 00 ce 9a bc 50 f1 1e 3c
       0.035673678 -0.055757236 -0.018897057 0.009701088
000230 40 e0 98 bc d6 e1 85 bc 6c c3 c5 3c 09 fb 2d bd
       -0.018661618 -0.016343039 0.024141036 -0.042475734
000240 24 91 0a 3d 20 54 2b 3c a0 61 f4 3c 08 d3 83 3c
       0.033829823 0.010457069 0.029831707 0.016091838
000250 70 64 4c bb 76 0d 54 bd b2 55 20 bd ac 8c 96 3c
       -0.0031187795 -0.05177065 -0.039144225 0.018377624
000260 e8 a1 30 3d 30 ad 54 bd 20 32 09 3c d8 03 7d bc
       0.043123156 -0.051922977 0.008373767 -0.015442811
000270 24 02 5a 3d 42 c0 14 3d 80 60 7a 3a 60 21 35 3c
       0.053224698 0.036316164 0.0009551123 0.0110553205
000280 ec 16 50 3d 40 61 61 3a 88 ea ac 3c 06 a0 35 bd
       0.05080311 0.000859756 0.021107927 -0.044342063
000290 bd 64 ee bc d0 05 97 3c 82 36 ab bc 36 69 e7 bc
       -0.02910077 0.018435389 -0.020900015 -0.02824841
0002a0 99 51 48 bd a8 da ec 3c d0 44 d9 3c 10 e2 e1 3b
       -0.048905943 0.028912857 0.02652207 0.006893404
0002b0 e8 7e cb 3c 82 68 18 3d 03 4f 63 bd f4 7a 5e 3d
       0.024840787 0.03720904 -0.055495273 0.054316476
0002c0 14 9c 25 3d 7e a0 35 3d 66 9e ba bc 1f a3 5a bd
       0.04043205 0.04434251 -0.022780608 -0.05337822
0002d0 f0 db 16 3b fc 68 de bc 20 7b 4c 3d ec a2 05 bd
       0.0023019277 -0.02714967 0.04992211 -0.032626078
0002e0 a8 cf d0 bb 7a f1 9c bc 66 b5 1c 3d f6 63 50 3d
       -0.006372411 -0.019158114 0.038258933 0.05087658
0002f0 be 87 51 3d e4 dd 5f bd ac 1a d6 3c e8 1b a8 3c
       0.051154844 -0.05465497 0.026135765 0.02052112
000300 6e f4 52 3d d8 78 e6 3c e4 ac 7b bc 10 99 5a 3c
       0.051502638 0.028133795 -0.015361045 0.013342157
000310 44 c3 cb 3c 55 b4 25 bd c4 fe bb bc 6e 7e 44 bd
       0.024873383 -0.04045518 -0.02294863 -0.047972135
000320 ec ec 3f 3d 40 26 f1 3c d0 03 f3 3b 74 b9 a4 3c
       0.046856806 0.029437184 0.007416226 0.020107962
000330 c0 7c 95 ba 28 d1 38 bd a4 15 3a bc b8 17 ab bc
       -0.0011404976 -0.045121342 -0.011357699 -0.020885333
000340 36 26 06 3d e0 58 13 3d b0 f2 59 3d 78 ea c6 bb
       0.032751285 0.03597343 0.05320996 -0.0060704313
000350 2c cd 1f bd 7a b0 81 bc 8b 1a 39 bd 10 de 28 3d
       -0.039014027 -0.01583122 -0.04519133 0.0412274
000360 23 36 62 bd 60 77 37 3c 54 70 73 bc 46 3d ff bc
       -0.05522741 0.011197895 -0.014858324 -0.031157147
000370 f5 e1 48 bd 30 d3 ff bc b4 42 82 bc f0 1b 2c 3b
       -0.049043614 -0.031228632 -0.015900947 0.002626177
000380 d4 c5 ec 3c b8 e3 c7 bc 60 95 39 bb 72 da 13 3d
       0.028902926 -0.024400577 -0.0028317794 0.036096998
000390 ac f1 28 bd 10 9b 06 3b 98 19 3c 3d 96 fe 15 bd
       -0.0412461 0.0020539202 0.045922846 -0.036619745
0003a0 f8 e7 c6 bb a0 38 89 bc a7 bd 56 bd 08 a0 6b bc
       -0.0060701333 -0.016750634 -0.05242696 -0.014381416
0003b0 54 f0 21 bd b0 a3 55 3c 20 b7 96 3c c3 e8 2d bd
       -0.039535835 0.013039514 0.018397868 -0.042458307
0003c0 14 69 c9 3c 70 64 17 bb 21 12 1e bd f0 d9 3a 3c
       0.024586238 -0.0023100637 -0.038591508 0.011404499
0003d0 08 66 ab bb 28 84 24 3d 90 10 0b 3c e4 45 80 3c
       -0.005230669 0.040165097 0.0084878355 0.015658326
0003e0 08 78 14 3d b8 0a 0c 3c ac fa b9 3c cc 6d 0e 3d
       0.036247283 0.008547477 0.022702537 0.03477268
0003f0 d2 86 2a 3d c4 85 be 3c 6e 42 0c bd 50 70 6e 3b
       0.04163248 0.023257144 -0.03424304 0.0036382861

bias f4 [256]
000000 1c f6 37 3d 62 7b 2b 3d 3c 27 60 bd f0 0f 01 3d
       0.044912443 0.041865714 -0.054724917 0.03150934
000010 cf a5 e7 bc 1e 7a 2f 3d 70 e3 1c bc 2c 68 14 bd
       -0.028277306 0.04284107 -0.00957571 -0.03623216
000020 d0 35 ef 3b 7a c6 32 3d 34 a4 41 3d 51 e7 57 bd
       0.007300116 0.043646313 0.047275737 -0.052710835
000030 ca c0 55 3d 0c 03 38 bc 2c 08 c4 bc 0f ab e5 bc
       0.05218581 -0.011231195 -0.023929678 -0.028035669
000040 70 b7 18 3c 10 0e 53 3c 28 a6 35 3c e8 82 19 3d
       0.009321079 0.012881771 0.011086978 0.037478358
000050 84 e3 af bc 74 af 1c bc 9c 5e 24 bc ac 66 be bc
       -0.021470793 -0.009563316 -0.010032322 -0.023242317
000060 20 2e c2 3c 68 89 f0 3c e8 e2 f6 bb 86 eb a5 bc
       0.023703635 0.029362395 -0.0075343736 -0.020253908
000070 c8 29 52 bd a0 5f 53 3d 03 8a 46 bd 68 a3 17 3d
       -0.051309377 0.051604867 -0.048471462 0.03702107
000080 17 f6 0b bd 26 c3 58 bd 28 57 61 bd 5c 59 26 3d
       -0.034170236 -0.052920483 -0.05501476 0.040612563
000090 46 ed 8a bc bc 7a a3 3c 00 da 4a 39 92 db 31 3d
       -0.016958844 0.019955985 0.00019345433 0.04342229
0000a0 10 86 b0 3c f2 94 9c bc 9c d6 0e bd 8a 60 57 3d
       0.021548301 -0.019113991 -0.034872636 0.0525823
0000b0 70 13 f8 3b 31 87 46 bd 70 d8 96 3c 8d 31 28 bd
       0.0075706765 -0.048468772 0.018413752 -0.04106288
0000c0 f0 27 97 3c 50 fd 61 3d f2 b4 05 bd d6 3e 54 3d
       0.01845166 0.05517322 -0.032643266 0.051817738
0000d0 8c f1 30 bd 00 a7 8e 3a 6e 50 30 3d 8a d8 23 3d
       -0.043199107 0.001088351 0.043045454 0.04000143
0000e0 d0 6c fc 3c 44 81 ec 3c bb 80 60 bd c0 20 16 bc
       0.030813605 0.028870232 -0.054810267 -0.009163082
0000f0 61 7a 00 bd d1 a8 f1 bc 0c 5c 39 3d ac 70 c7 bc
       -0.03136671 -0.029499443 0.0452538 -0.024345718
000100 e4 32 fa 3c b0 12 f4 3b 50 ec c1 3c 10 4b db 3b
       0.030541845 0.007448517 0.023672253 0.0066922978
000110 c8 18 7f 3c 84 13 b5 3c f8 23 62 bc 88 cf 0c 3c
       0.015569873 0.022104032 -0.013802521 0.008594401
000120 58 38 b1 3c c0 4e 13 3d e3 74 40 bd 3c 37 c5 3c
       0.021633312 0.035963774 -0.04698647 0.02407419
000130 6f 0c 62 bd 48 2e 1a 3d 23 ef 44 bd 78 1a af 3c
       -0.05518764 0.037641793 -0.04807962 0.021374926
000140 70 5b 6b 3b 05 0f fa bc c0 17 51 bc e4 b5 2d bc
       0.0035912655 -0.03052474 -0.01276201 -0.010602448
000150 60 1d 8f 3c 54 29 46 3d 3a b8 56 3d d0 7d c2 3b
       0.017470062 0.048379257 0.052421786 0.005935408
000160 07 82 4f bd d8 b1 c8 3c b8 18 10 3d 42 4b 02 bd
       -0.050661113 0.024498865 0.035179824 -0.031810053
000170 a0 cf 8d 3a 80 f4 1d bd 40 83 34 3d 3a 8d 4a 3d
       0.0010819323 -0.03856325 0.044070482 0.04945109
000180 da 68 5b bd fc 01 62 bd 8a 80 1c 3d 6b 36 26 bd
       -0.05356679 -0.055177674 0.038208522 -0.04057924
000190 c6 a3 ae bc 30 ac 1f 3b 7e 8d 11 bd 79 ef 5f bd
       -0.021318328 0.0024364106 -0.035535328 -0.05467174
0001a0 1d e1 dd bc e4 af fa 3c 36 b3 64 3d b8 f5 2b 3c
       -0.027084881 0.03060145 0.05583497 0.010495596
0001b0 4a ff 32 3d e5 fe e4 bc 99 19 43 bd bf 17 cf bc
       0.043700494 -0.027953574 -0.047631834 -0.025279878
0001c0 9d a2 63 bd 30 42 3b bb c0 68 13 3a 76 c9 9a bc
       -0.055575002 -0.0028573386 0.0005623214 -0.018894892
0001d0 1e f2 4a bd 68 ee a3 3b c0 30 e9 3a 79 32 3f bd
       -0.049547307 0.0050027855 0.0017791018 -0.046678994
0001e0 5c 3f 61 bc ca 4c 52 3d c4 32 1a bc 70 18 4b 3d
       -0.013748016 0.051342763 -0.0094115175 0.049583852
0001f0 d6 7f c6 bc 90 65 41 3c 90 99 3a 3d 58 d5 81 bc
       -0.024230879 0.011804 0.045556605 -0.0158488
000200 a8 45 a5 bb fe bb 02 bd 18 19 48 3d 36 4c d8 bc
       -0.005043704 -0.031917565 0.048852056 -0.026403528
000210 60 8e f1 3c 98 21 e9 bb ca 74 c3 bc b8 dd 38 3d
       0.029486835 -0.0071146004 -0.0238594 0.045133322
000220 98 86 59 3c 18 21 c5 3b 43 90 59 bd e8 06 7d 3c
       0.013276719 0.006015908 -0.053116094 0.015443541
000230 80 fa 2e 3b 7e 69 5a bd 14 c6 c2 bc ac 78 3b bd
       0.0026699603 -0.05332326 -0.023776092 -0.04576938
000240 22 b1 56 3d 56 75 15 3d 58 84 cd bc f8 0a 07 3c
       0.05241502 0.036488853 -0.02508752 0.008242361
000250 da d0 01 bd 3c 25 8d 3c b8 e1 d1 3c 10 1e c5 bb
       -0.031693317 0.017229669 0.025620326 -0.0060155466
000260 26 6d 90 bc 28 a9 bf bc 8c f8 ac bc ac f5 22 bd
       -0.017630171 -0.02339609 -0.02111461 -0.039785072
000270 e6 ca 5f 3d 6c f2 d0 3c 30 fc 45 3b 80 b3 2e 3b
       0.05463686 0.02550622 0.003021013 0.0026657283
000280 d8 3d 00 3c 30 e3 01 bd b0 00 fa bb f6 2a 15 3d
       0.007827245 -0.031710804 -0.0076294765 0.036417924
000290 06 a7 92 bc 74 3d 97 3c a8 89 22 3d e0 5e 04 bd
       -0.017901909 0.01846192 0.03968206 -0.032317042
0002a0 e8 5d 30 bd 20 19 b8 3c 9a 13 07 bd 2a 98 01 3d
       -0.043058306 0.022472918 -0.032977678 0.031639256
0002b0 30 c5 7f 3c 5e 64 af bc e2 47 56 3d cb 56 0d bd
       0.015610978 -0.021410163 0.052314647 -0.0345066
0002c0 b4 77 99 bc c0 ba b6 3b 59 c8 ea bc 20 0d 26 3d
       -0.018733837 0.0055764616 -0.028659986 0.04053986
0002d0 49 c2 64 bd 26 f6 49 3d 87 24 e2 bc 0a c8 2e bd
       -0.055849347 0.04930701 -0.027605308 -0.04267124
0002e0 52 ba 0c 3d 40 75 d7 3a 00 14 b0 bb 78 d0 01 3d
       0.034357376 0.0016438141 -0.005373478 0.031692952
0002f0 b8 75 8e 3c 46 cb 4f 3d 90 e5 49 bd 20 6f fb 3b
       0.017390117 0.050730966 -0.049291193 0.0076731592
000300 20 a4 78 bb c0 01 a1 bc 64 fd 2a 3d b0 de cd 3c
       -0.0037939623 -0.019654155 0.04174556 0.0251306
000310 90 5a 5a 3c a7 42 4d bd af 49 32 bd 10 58 d8 bb
       0.013327256 -0.050112393 -0.0435273 -0.0066022947
000320 d4 38 b2 3c 90 51 f6 bb 74 ef a1 bc 2c cc 7b bc
       0.021755613 -0.007517047 -0.0197675 -0.015368503
000330 d5 0c 5b bd a0 1f f4 bb 30 6a 51 3d 00 e2 ff 39
       -0.053479034 -0.007450059 0.05112666 0.00048805773
000340 48 a1 f6 bb b4 78 e1 3c 60 93 e8 3b 70 f3 06 3d
       -0.0075265504 0.027523376 0.0070976466 0.032947004
000350 c6 48 04 3d 8a b8 f9 bc 40 7f 21 3d d4 db 26 bc
       0.032295965 -0.030483503 0.039427996 -0.010184247
000360 f4 f3 5a 3d b0 0a e9 3b 6a 9d 54 bd dc f0 99 3c
       0.053455308 0.0071118698 -0.051907934 0.018791609
000370 f8 5c be 3b f0 e8 44 3b 86 0b 30 bd 50 d2 05 3d
       0.0058094226 0.0030046068 -0.04297974 0.032671273
000380 8a dd 91 bc f4 1d 3a bd e8 66 98 3c 27 91 57 bd
       -0.017805833 -0.04543872 0.018603757 -0.052628662
000390 92 17 47 bd 34 5a 00 3d 74 67 1c bd 6a a3 54 3d
       -0.048606463 0.031336024 -0.038184598 0.051913656
0003a0 04 d5 25 3d b5 07 55 bd ac 02 cc 3c c2 5f 49 bd
       0.04048635 -0.052009303 0.024903618 -0.049163587
0003b0 f8 71 d5 3c 9e 3a 64 3d d8 c5 52 3c 46 a9 1b bd
       0.026055321 0.055719964 0.012864552 -0.03800323
0003c0 70 67 a6 bb f8 c8 0d 3d 39 9e e1 bc 1e 35 0d bd
       -0.0050782487 0.034615487 -0.027541267 -0.034474485
0003d0 e6 72 da bc 12 07 4e 3d 47 73 cb bc 26 5d 0c 3d
       -0.026666116 0.05029971 -0.024835242 0.03426852
0003e0 24 0e 32 bc 72 ea 46 3d 10 46 51 bc 5c 4c 28 3d
       -0.010867629 0.04856343 -0.012773052 0.041088447
0003f0 82 4e 47 3d d4 ac 28 bd d0 ca d2 3c 50 f5 b1 3b
       0.048658855 -0.041180447 0.025731474 0.005430855

weight f4 [256, 256]
000000 94 4b 80 3c a0 ba 41 bc a4 77 6b 3d 00 02 cc bb
       0.015661038 -0.01182428 0.057487145 -0.0062258244
000010 3e ff 2f bd d4 c9 f3 3c 08 0d 0d bd 68 ac 20 bc
       -0.042968027 0.029759325 -0.034436256 -0.00980673
000020 78 08 3f 3d c4 18 82 bc d0 20 8c bc 64 37 4b bd
       0.046638936 -0.01588095 -0.01710549 -0.04961337
000030 56 74 1a bd c0 c5 d3 3a 28 c6 22 3d f8 98 25 bc
       -0.037708603 0.0016156957 0.039739758 -0.010107271
000040 50 bd 40 3d f0 e8 d5 3c 30 9a 66 3c c8 f7 72 bd
       0.047055542 0.02611205 0.014074847 -0.059318334
000050 28 e8 8c 3c ee f5 6d 3d 20 7a b0 3b c6 be 74 bd
       0.017200544 0.058095865 0.005385652 -0.05975225
000060 78 b3 75 3c 06 82 10 bd 62 28 3d bd 68 7a 02 3d
       0.014996402 -0.03528025 -0.04618109 0.031855017
000070 2c ed 22 3d 36 23 0d 3d 90 2c 86 3c ea a7 57 bd
       0.039776966 0.034457408 0.01637867 -0.05265037
000080 aa e2 77 3d 80 ec 1d bd d0 88 25 3d 02 5e 35 3d
       0.060518898 -0.038555622 0.040413678 0.044279106
000090 98 d6 36 3c 80 8d 1d bd b8 53 20 3d 08 06 29 bd
       0.011159562 -0.038465023 0.03914234 -0.041265517
0000a0 ce 66 09 bd 98 ec 83 bc 80 e0 a8 bc 68 f7 76 bd
       -0.033545308 -0.016104028 -0.020614862 -0.06029454
0000b0 24 8e f9 bc 18 16 c6 bc 22 fd 0f 3d c0 71 f8 3a
       -0.030463286 -0.024180457 0.035153516 0.0018954799
0000c0 b0 51 5a 3d fa 18 38 3d b4 5b 64 3d dc d5 d9 3c
       0.05330056 0.044945695 0.055751517 0.026591234
0000d0 7a eb 01 bd 34 2c 10 bd d2 1e 72 3d b2 7f 40 bd
       -0.03171871 -0.035198405 0.059111424 -0.04699678
0000e0 a0 ca 7f 3d c0 c7 b5 ba 1c ef fb bc a0 5c cd bc
       0.062449098 -0.0013868734 -0.030753665 -0.025068581
0000f0 0e 8b 1a 3d d0 74 b6 bc 50 a8 cd bc c0 06 79 3b
       0.03773027 -0.022272497 -0.025104672 0.0037998408
000100 9c 3e 24 3d a8 b3 63 bd c4 f1 fa 3c 3e 91 53 bd
       0.04009877 -0.055591255 0.030632861 -0.051652186
000110 d6 20 47 bd e0 93 89 3b 80 57 b5 bb 5e c4 2e 3d
       -0.0486153 0.0041985363 -0.0055341125 0.04266774
000120 06 31 3e bd c8 25 69 3d 00 1e 41 3d 2c 0c 73 3d
       -0.04643347 0.056920797 0.04714775 0.05933778
000130 e0 9a d4 bb 30 c1 04 3d d2 ae 2a bd 9a 17 64 3d
       -0.006488189 0.0324108 -0.041670628 0.05568657
000140 b0 ef 05 bd 2c 66 18 bd ba 7c 48 3d 20 24 65 bd
       -0.032699287 -0.037206814 0.048947074 -0.055942655
000150 e0 5c 7e bd 9e 2a 4e 3d ea 16 64 3d 38 8a f8 bc
       -0.06210029 0.05033361 0.055685915 -0.030339345
000160 50 b7 bc bc 14 f2 6f bd 7a af 2e 3d 30 4d 65 3d
       -0.023036629 -0.058580473 0.042647816 0.055981815
000170 f0 23 21 3c a8 03 af 3c 98 85 0e 3c 5a 7f 6e bd
       0.009835228 0.021364048 0.008698843 -0.05822692
000180 ae 69 68 3d c6 b7 73 bd c0 b3 56 3c 40 ee bf bc
       0.05674141 -0.059501432 0.013104379 -0.023429036
000190 14 d3 6a bd 7c 05 78 bd 60 e6 b4 bb 6c 08 6f bd
       -0.057330206 -0.060552105 -0.005520627 -0.05835764
0001a0 20 97 7d 3d 30 39 3e 3c 0a 83 0e bd 10 99 3c bc
       0.061911702 0.011610314 -0.034792937 -0.011511102
0001b0 40 dd f1 3a 70 55 5e 3d be ec 19 3d c4 3c b3 3c
       0.0018452778 0.0542807 0.03757929 0.021879561
0001c0 84 a0 2c bd d0 84 9d 3c 58 08 da bc 0e 6d 64 3d
       -0.042145267 0.019228369 -0.026615307 0.055768065
0001d0 d6 5d 1e 3d 86 ef 40 bd 0c c5 77 bd 54 e1 1a bd
       0.038663708 -0.047103427 -0.060490653 -0.037812546
0001e0 36 2c 59 bd e0 c7 35 bb 50 ea 53 bd 0c 51 60 bd
       -0.05302068 -0.0027737543 -0.05173713 -0.054764792
0001f0 40 97 05 3d 18 49 01 3c 44 95 49 3d e0 15 d8 bb
       0.032614946 0.007890962 0.049214616 -0.0065944046
000200 18 44 21 bd 00 e7 6f 3a 90 ad ae 3c 66 5d 61 bd
       -0.03937158 0.0009151548 0.021322995 -0.055020712
000210 fc 57 8e 3c 80 f2 10 bc 6c 77 26 3d 90 9f 92 bb
       0.017375939 -0.008846879 0.040641233 -0.0044745877
000220 4c 68 4d 3d e2 fd 31 3d 40 03 9f 3a 10 eb 3c bc
       0.050148293 0.043455012 0.0012131706 -0.011530653
000230 54 b3 74 bd 86 1d 28 3d 2c a7 bd bc 22 b1 34 3d
       -0.059741333 0.04104378 -0.023151003 0.04411424
000240 78 00 f5 bc 08 9e 3a bd 78 00 1e 3c 40 2c 0b 3b
       -0.02990745 -0.045560867 0.009643666 0.0021236092
000250 70 fd 55 3d a8 09 1d bd 40 12 ab 3b ac 60 4c bd
       0.05224365 -0.038339287 0.0052206814 -0.04989688
000260 74 c3 2d 3d 94 09 29 3d 08 9c b9 3c 70 0e cc bb
       0.042422727 0.0412689 0.02265741 -0.006227307
000270 e2 79 60 bd b0 0e f1 3c 48 bc 73 bd 60 e6 e2 bc
       -0.054803737 0.029425949 -0.05950573 -0.027697742
000280 ba 72 46 bd 96 54 72 bd a0 10 15 bc dc a4 c2 3c
       -0.048449256 -0.0591627 -0.009098202 0.023760252
000290 04 c2 72 3d 5c ed 93 bc 2a bb 60 bd fa 29 7c 3d
       0.05926706 -0.018057518 -0.054865994 0.06156347
0002a0 d0 9e 35 bc 38 a3 cc 3c a2 4f 50 bd e0 f9 02 3d
       -0.011085227 0.024980173 -0.050857194 0.03197658
0002b0 8c e3 2d bd 90 82 04 3c b8 30 66 bc 80 f4 b0 bb
       -0.042453334 0.008087769 -0.014049701 -0.0054002404
0002c0 30 e6 15 bd 44 03 f7 bc 68 e6 54 3d 70 eb dc 3c
       -0.036596477 -0.030152924 0.051977545 0.026967734
0002d0 5e 40 6c 3d ee 0a 79 3d f0 4a 5f 3c 50 f9 55 bd
       0.057678573 0.06080144 0.013628706 -0.052239716
0002e0 50 95 95 3c 1c dc 5d bd 72 61 04 3d 42 8f 71 3d
       0.018259674 -0.05416499 0.032319494 0.058974512
0002f0 58 6a a4 bc 30 a1 8c 3b 7c 97 1f bd 90 7e db bc
       -0.02007024 0.004291676 -0.038962826 -0.026793748
000300 ec 57 7d 3d 80 5b 1a bc 7e 34 70 bd 50 f5 3f 3d
       0.061851427 -0.009421229 -0.05864381 0.046864808
000310 94 80 c8 3c d0 cf c5 3c c0 d4 8c 3b 58 b2 fe bc
       0.024475373 0.024146944 0.0042978227 -0.0310909
000320 9a c6 63 bd 90 57 36 bd f0 48 cf bc da 24 48 3d
       -0.055609323 -0.0445171 -0.025303334 0.04886327
000330 88 74 9d bc e0 7f 53 3c f2 f4 1e 3d 30 93 8e bb
       -0.019220605 0.012908906 0.038807817 -0.004351042
000340 00 32 56 3a b4 e7 6a 3d ec e6 22 bd dc 25 f1 3c
       0.0008170903 0.057349876 -0.039771006 0.029436998
000350 4a fc 5e 3d 40 c3 be 3a 00 05 3c bc 70 58 28 3c
       0.05443982 0.0014554039 -0.0114758015 0.010274991
000360 74 74 8d 3c b4 3a e5 bc 96 62 45 bd f2 9c 6d 3d
       0.017267443 -0.027982093 -0.048189722 0.058011003
000370 c0 09 d0 bb 16 83 5d 3d b0 5c d9 bc 94 65 66 3d
       -0.0063488185 0.05408009 -0.026533455 0.056249216
000380 b0 8e 8a 3b 40 29 73 3d e8 b8 59 3c 10 a3 83 bc
       0.0042284355 0.05936551 0.013288714 -0.016068965
000390 60 4a 07 3c 40 e6 5a 3d cc 0d 71 3d 34 97 74 3d
       0.0082574785 0.05344224 0.05885105 0.05971451
0003a0 30 62 fa bb 40 ac 5a bb da 23 65 3d 82 58 53 bd
       -0.0076410994 -0.003336683 0.055942394 -0.05159808
0003b0 60 9e 70 3d 06 ce 05 3d 06 2e 08 bd 22 ed 62 bd
       0.05874479 0.032667182 -0.033247016 -0.05540193
0003c0 96 dd 59 bd 78 0f 65 bc cc ab 5f 3d 72 cc 03 3d
       -0.053189836 -0.013980739 0.054607198 0.032177396
0003d0 c8 97 7b 3d 86 24 49 bd 1c 71 14 3d 98 ff 0d bd
       0.061424047 -0.049107097 0.036240682 -0.03466758
0003e0 e8 65 2c bd 8e 85 45 bd 4e 02 56 bd 3c 43 9e 3c
       -0.042089373 -0.04822307 -0.05224829 0.01931917
0003f0 94 cd e0 3c f4 a8 42 bd ae 16 57 bd 34 63 62 bd
       0.027441777 -0.047524408 -0.052511863 -0.05527039

bias f4 [256]
000000 90 8c 1c 3d 10 d5 a8 3c 54 1f 76 bd 3e 51 43 bd
       0.03821999 0.020609409 -0.06008847 -0.0476849
000010 1c 77 cd 3c 3c b8 b0 bc fc 83 cf bc 44 96 42 3d
       0.02508121 -0.021572225 -0.02533149 0.047506586
000020 90 57 a9 bc e8 32 b0 bc da ba 18 3d e4 84 bf 3c
       -0.020671636 -0.021508649 0.03728757 0.023378797
000030 80 80 c7 3b 94 6f 27 3d 50 c6 14 bc 50 f6 f6 3b
       0.0060883164 0.040877894 -0.0090804845 0.007536687
000040 74 50 a4 3c 50 83 5f 3d c8 ac 44 3d 20 67 a5 bb
       0.020057894 0.05456859 0.04801634 -0.005047694
000050 da 5c 39 bd 24 78 9d bc 90 0e 25 bc b4 68 6d 3d
       -0.045254566 -0.019222327 -0.010074273 0.05796118
000060 4a 76 20 3d 6e 78 09 3d a4 d0 36 3d e6 9f 08 3d
       0.03917531 0.033562116 0.04463257 0.033355616
000070 96 a6 5c bd e8 8c ae 3c 18 5d 0a 3d 10 ea d0 bc
       -0.053869806 0.021307424 0.033780187 -0.025502235
000080 40 e2 0f 3c c6 af 47 3d 40 48 4f bd 70 72 ff 3b
       0.00878197 0.048751615 -0.050606012 0.0077956244
000090 00 5b b4 bb 64 98 ae bc aa 82 53 3d 12 6e 7f 3d
       -0.005504012 -0.0213129 0.051638283 0.06236083
0000a0 ac dd af bc f4 45 74 3d 58 73 e6 bc 54 eb 95 3c
       -0.021468006 0.059637025 -0.028131172 0.01830069
0000b0 9c 03 87 3c b0 e8 6f 3c 00 d5 44 3c e0 12 c5 bb
       0.016481213 0.014642879 0.012013674 -0.006014213
0000c0 00 43 a3 39 48 d9 3b bd 12 74 10 bd 10 4a 35 bd
       0.00031139702 -0.045861512 -0.035266943 -0.044260085
0000d0 88 ec a9 bc 54 ee dc 3c a2 4c 28 3d de 44 31 bd
       -0.02074267 0.026969112 0.041088708 -0.043278567
0000e0 10 d9 72 3d 38 d5 2b bd 90 81 db 3b c6 5c 07 3d
       0.05928904 -0.041951388 0.0066987947 0.03304746
0000f0 cc 26 d2 bc d4 e6 fe bc 88 f7 60 3c b8 0c 60 3c
       -0.025653265 -0.031115927 0.013730891 0.013674907
000100 20 c8 aa bc 14 23 06 bd d8 1d 08 3d 90 44 b9 3b
       -0.02084738 -0.032748297 0.033231586 0.0056539252
000110 74 aa dc bc b4 90 fc 3c 10 fa b2 3b 34 53 15 3d
       -0.026936747 0.030830719 0.0054619387 0.0364563
000120 ac 1e 9f 3c 24 36 f5 bc 50 3e 31 bc 10 f4 2b 3c
       0.019423805 -0.029933043 -0.010818079 0.010495201
000130 d8 43 d6 bc 96 ad 1f bd 48 8a 7c bd 42 eb 36 3d
       -0.026155397 -0.038983904 -0.061655313 0.044657953
000140 c0 6a 5e 3d 36 37 21 3d d8 39 f7 bc 70 bb 03 3c
       0.054301023 0.039359294 -0.03017895 0.008040294
000150 b0 1f 47 bd 68 91 35 bd c8 56 d0 bc 7a e8 4b bd
       -0.048614204 -0.044328123 -0.025432006 -0.049782254
000160 0c 92 38 3d e0 fb d4 bb c0 44 ac bb 6a bd 14 3d
       0.045061156 -0.0064997524 -0.005257219 0.03631345
000170 0c 01 ca bc 7e 6d 11 3d 20 a9 1c bc 48 34 2f bd
       -0.024658702 0.03550481 -0.009561807 -0.04277447
000180 50 9a 79 3c a8 4b 3d bc 7c 0c 3c 3d e0 8a 24 3b
       0.015234545 -0.011553682 0.045910344 0.002510719
000190 0c 5a 89 3c 3c c0 35 bd 38 22 d6 3c a0 f1 6b bb
       0.01676657 -0.044372782 0.026139364 -0.0036002174
0001a0 18 e1 23 bc 9e 95 29 3d 70 45 67 3d 96 83 0e bd
       -0.010002397 0.04140245 0.056462705 -0.03479346
0001b0 56 0d 03 3d 0e 57 10 3d 66 73 79 bd 90 2c 8a 3b
       0.03199514 0.03523927 -0.06090107 0.004216738
0001c0 04 b4 5b 3d b8 4b 31 bc e0 b9 41 3b c0 b1 dd 3b
       0.053638473 -0.010821275 0.0029560253 0.006765574
0001d0 34 d7 ba bc c0 3d 87 3a c8 54 45 3d 80 b2 0e 3b
       -0.022807695 0.0010318086 0.048176557 0.0021773875
0001e0 54 cf 2d bd 22 c8 7a bd 90 90 e1 bb b2 89 1d 3d
       -0.04243405 -0.061226018 -0.0068836883 0.038461395
0001f0 70 8e 4b bd 0a ca 32 3d 44 2c 24 3d 60 fd 29 3b
       -0.049696386 0.04364971 0.040081277 0.0025938377
000200 c0 35 af bc 00 0f 71 3d 20 ec 47 bb 00 f4 51 3c
       -0.021387935 0.058852196 -0.0030505732 0.012814522
000210 48 ec 9a 3c c0 17 92 3a c0 5f b4 bc 02 e7 5b 3d
       0.018911496 0.0011145994 -0.022018313 0.053687103
000220 3c 57 e5 3c 50 c2 ea 3c fe 3f 5b 3d ee 69 1e bd
       0.027995698 0.028657109 0.053527825 -0.03867524
000230 96 12 62 bd 98 91 8d bc 8c a9 55 bd 5c 7b 0a 3d
       -0.055193506 -0.017281339 -0.052163646 0.03380905
000240 2c 0a 1e bd 0a 79 28 bd b0 fa 06 bd bc 47 bf 3c
       -0.03858392 -0.041131057 -0.032953918 0.023349635
000250 38 a4 39 3d 18 69 83 bc d0 4a ec 3c 38 30 5a bc
       0.045322627 -0.016041324 0.028844267 -0.01331716
000260 5c 2a 9f bc 9c 4e 4f 3d 6a a0 79 bd 0c 0f b0 bc
       -0.019429378 0.050612077 -0.060944 -0.02149155
000270 84 42 8c bc 78 1e bb bc 2c 79 a1 3c 4c 6e 44 bd
       -0.01712156 -0.022841677 0.0197111 -0.04795675
000280 d2 c9 10 bd 74 9c 34 3d 82 5e 51 3d a4 a1 ea 3c
       -0.03534872 0.044094518 0.05111552 0.02864153
000290 08 d6 5b bc 20 75 ac 3c 08 3b 56 3d 30 fc eb 3b
       -0.013417728 0.021051943 0.05230239 0.007201694
0002a0 00 0c 27 bd f6 a6 1a bd c4 c1 26 3d 50 82 da 3b
       -0.04078293 -0.037756883 0.040712133 0.0066683665
0002b0 5e 41 6b 3d a0 56 d5 3c bc be 7f 3d e0 50 61 bc
       0.057435386 0.026042283 0.062437758 -0.013752192
0002c0 e0 11 e7 3c f0 f1 61 3d 50 ee f4 bb 50 7c 4a 3c
       0.028206766 0.05516237 -0.007474698 0.01235874
0002d0 a4 02 01 bd a4 1f 7d bd 88 f8 c0 bc c2 2e 6c 3d
       -0.03149666 -0.061797753 -0.023556009 0.05766178
0002e0 88 e6 a4 bc b8 6c 31 bd 92 80 1e 3d a8 d1 98 bc
       -0.020129457 -0.043316573 0.038696833 -0.01865466
0002f0 c0 eb 0f 3c 40 14 dd ba 48 a0 58 3c 7c 5b 7f 3d
       0.0087842345 -0.0016866997 0.013221808 0.062343106
000300 dc ae cf bc e0 98 68 bc d6 c2 77 bd fe 12 1c 3d
       -0.025351934 -0.0141966045 -0.060488544 0.03810405
000310 94 3a a1 3c 50 e9 f8 bc 50 c1 39 3c 66 ff 60 3d
       0.019681253 -0.03038469 0.011337593 0.054931067
000320 64 2e a2 bc 8c a3 d9 bc 0a 02 23 3d 60 e9 f9 bc
       -0.019797511 -0.026567243 0.039796866 -0.03050679
000330 14 e2 de 3c d0 f3 08 bd f8 da 71 3d 1c 5e dd bc
       0.027207412 -0.033435643 0.059046715 -0.027022414
000340 36 0f 78 3d 48 cf 9a bc 84 7d 8f 3c 66 97 0d bd
       0.06056138 -0.018897668 0.017515905 -0.034568213
000350 f0 52 3a bd 28 50 3e bd b0 93 74 bd 64 94 3b bd
       -0.04548925 -0.04646316 -0.05971116 -0.045795813
000360 de cd 0d bd 78 51 45 3d 80 20 0a bd d0 7b 13 bd
       -0.03462016 0.048173398 -0.0337224 -0.03600675
000370 00 25 33 3b e0 7b c7 3b 88 2d 2b 3d 30 76 71 3d
       0.0027335286 0.006087765 0.04179147 0.058950603
000380 26 dd 0d bd 3a 05 6d 3d ce 26 41 3d d0 7f c5 3b
       -0.03463473 0.057866313 0.047156148 0.0060271993
000390 b0 3a 50 bd 08 69 2f 3c d6 d4 19 3d d8 a3 eb bc
       -0.05083722 0.010706194 0.03755649 -0.02876465
0003a0 3c fc d1 bc d4 9c 66 3d b8 59 6f bc 5e f2 58 3d
       -0.02563297 0.056301907 -0.014608793 0.052965514
0003b0 4c 83 9f 3c a0 f8 6d bb 40 2b 60 3b 6e 89 2b 3d
       0.019471787 -0.0036311522 0.0034205467 0.04187911
0003c0 38 cd 84 3c 30 62 d7 3c a4 6d 83 bc 12 36 61 bd
       0.016211137 0.026291937 -0.016043492 -0.054983206
0003d0 96 71 6f 3d e8 83 52 bd f8 03 80 3c 40 ad b2 bb
       0.058457933 -0.051395327 0.015626892 -0.005452782
0003e0 58 1b d4 3c 18 40 56 3d 80 6c 1a bb f8 6f 77 3d
       0.025891945 0.05230722 -0.0023563206 0.060409516
0003f0 50 a2 10 3d c8 b7 2a bc 9e 11 1f 3d 4e ff 3d 3d
       0.035311043 -0.010419793 0.03883516 0.046386056

weight f4 [256, 256]
000000 b4 c1 e0 bc 88 63 05 3d e8 41 2f bc 9e 61 72 3d
       -0.027436115 0.032565624 -0.010696866 0.059175126
000010 c0 05 9e 3a e8 e8 91 3c 6c 2c 44 bd 1e b6 69 3d
       0.0012056157 0.017811254 -0.047893927 0.057058446
000020 20 80 48 bb a4 0f 50 bd b0 c2 f2 bb a8 84 c1 3c
       -0.0030593947 -0.050796166 -0.0074084625 0.023622826
000030 94 75 e1 bc 50 75 15 bc c6 0c 30 3d c8 ca 73 3d
       -0.027521886 -0.009122208 0.04298093 0.05951956
000040 4a 91 21 bd c4 7b 1f bd 06 1f 44 3d 68 a6 32 bd
       -0.0394452 -0.03893639 0.04788115 -0.04361573
000050 a8 b9 43 bd 7e 12 3b bd 40 ad ae ba 40 21 96 3c
       -0.047784477 -0.045671932 -0.0013326779 0.018326402
000060 3c a8 ee bc 14 b3 b6 bc 20 f3 1d bc 72 1a 04 bd
       -0.029132955 -0.022302188 -0.009640485 -0.032251783
000070 04 99 d3 3c 6a 04 40 3d ae f6 1f 3d 6c 09 f3 bc
       0.0258298 0.04687921 0.03905361 -0.029667579
000080 44 27 d9 bc 9e b0 04 bd 5c a8 41 bd 66 61 2e bd
       -0.026507981 -0.032394998 -0.0472797 -0.042573355
000090 80 96 39 bc f4 07 ca 3c d2 90 3d 3d a4 5b c8 3c
       -0.011327386 0.024661995 0.04628069 0.02445776
0000a0 28 dc 2a bc 60 a2 a2 3c c0 bd 30 3d 20 89 b3 3b
       -0.010428466 0.019852817 0.04314971 0.005478993
0000b0 68 86 1a bc c0 aa aa 3c 54 7d 47 3d 50 d9 08 bd
       -0.009431459 0.020833373 0.048703507 -0.03341037
0000c0 24 04 75 3d 04 5e e7 3c c0 af b2 bb f0 32 71 bc
       0.059818402 0.028243072 -0.00545308 -0.014721617
0000d0 60 2d 55 3b 84 fc 55 bd 9c ad 27 3d 3e 89 7c bd
       0.0032528266 -0.05224277 0.04093705 -0.06165432
0000e0 5a 5c 36 3d 6e ae 04 3d 74 fd 18 bd 00 c2 70 bc
       0.044521667 0.03239291 -0.037351087 -0.014694691
0000f0 66 a8 5e bd dc c0 b2 bc 00 d6 04 3a e0 d7 62 3b
       -0.054359816 -0.021820478 0.0005067289 0.0034613535
000100 d6 83 14 bd 48 41 f6 3c 6a f3 2e bd 0a 27 38 3d
       -0.03625854 0.030060425 -0.042712606 0.044959106
000110 f0 3e 03 bc fa 81 29 3d f4 2f ea 3c 2c e7 0d bd
       -0.008010611 0.04138372 0.028587319 -0.03464429
000120 38 ce f3 3c 0a 8e 3d bd 90 63 f4 bc e2 36 2f bd
       0.029761419 -0.046278037 -0.029832631 -0.04277695
000130 3e 88 04 bd 0c 37 5c 3d 78 dd 94 3c 98 c7 9f bc
       -0.032356493 0.053763434 0.01817201 -0.019504353
000140 d8 1f f5 bc 6a e9 5c 3d e8 3b e8 bc 58 02 9e bc
       -0.02992241 0.05393354 -0.028348878 -0.019288227
000150 ac 01 d1 3c 58 10 36 3c 90 06 be bc e0 58 72 3c
       0.025513493 0.011112295 -0.023196489 0.014791697
000160 08 de 08 3c e0 81 01 3d 60 2c f7 3c 68 6c 4b bc
       0.008353718 0.031618 0.030172527 -0.012415983
000170 0c aa a4 bc ba 54 77 3d 6a db 05 3d a0 53 bf 3b
       -0.020100616 0.060383536 0.032679953 0.0058388263
000180 46 8b 0d bd 2e 52 0d bd 7c 90 c3 bc cc 92 5b bd
       -0.03455665 -0.0345022 -0.023872606 -0.053606793
000190 b2 b7 6b 3d 08 6f d0 3c 2c 73 10 3d 10 e5 6c bd
       0.057548232 0.025443569 0.035266086 -0.05783564
0001a0 ba 98 19 3d 70 e8 b8 bb a8 e2 54 3d b6 cc 24 bd
       0.037499167 -0.005642943 0.05197397 -0.04023429
0001b0 e0 06 b4 3c a0 2e 8e bb 12 7d 56 bd 7c 6c da 3c
       0.021975935 -0.004339054 -0.05236537 0.026663058
0001c0 20 59 53 3b b6 bc 73 bd d8 c3 22 bd f0 b1 e9 bb
       0.0032249168 -0.05950614 -0.039737552 -0.0071318075
0001d0 cc 1c fb bc 36 3b 16 bd b0 cc 36 3c 52 04 4e bd
       -0.03065338 -0.03667756 0.0111572 -0.05029709
0001e0 72 8c 3b bd fe 3a 20 bd 5e f0 38 3d d4 4c 9f bc
       -0.045788236 -0.03911876 0.045151107 -0.019445814
0001f0 70 a7 ea 3b 00 eb 11 ba fa 36 11 bd 28 7b bc 3c
       0.0071610734 -0.0005566329 -0.03545282 0.023007944
000200 d0 60 05 bc c2 6b 6f bd c0 de cc bb 5c 75 a1 3c
       -0.008140758 -0.058452375 -0.00625214 0.019709282
000210 26 7a 6e 3d a8 e8 a8 bc f8 a9 0c 3d e0 7b 11 bb
       0.05822196 -0.020618752 0.034341782 -0.002219908
000220 1a c1 12 3d 28 3d cb bc e6 80 1d bd dc f9 2d bd
       0.035828687 -0.024809435 -0.038453005 -0.042474613
000230 2c c5 ce 3c 30 6d 4d bc 1c d9 ef bc c4 62 51 bd
       0.025240503 -0.012538239 -0.02927833 -0.05111958
000240 ba 5d 42 3d a0 e6 09 bc 8a c3 3e bd 50 11 31 bd
       0.047452666 -0.008416802 -0.0465732 -0.0432294
000250 f4 05 4f 3d d2 f1 6f 3d 4a 0d 55 bd a8 57 aa 3c
       0.050542787 0.058580227 -0.052014627 0.02079375
000260 50 7a a4 3b c0 50 cf bc 3c e2 e0 3c ce 7c 04 bd
       0.0050194636 -0.02530706 0.027451627 -0.032345586
000270 2e 1c 5b 3d d6 c4 36 3d dc 42 2b 3d 10 d9 63 3c
       0.05349367 0.04462131 0.04181181 0.013906732
000280 4c a7 2b 3d 3c 31 4f 3d b2 3f 1e 3d 4c b8 f1 3c
       0.041907594 0.050584063 0.038634963 0.029506825
000290 50 02 fe 3b 00 62 ed bb c6 31 72 3d e8 32 87 3c
       0.0077517405 -0.0072443485 0.0591295 0.016503766
0002a0 22 88 35 3d 68 b3 13 3d 3a 65 2d 3d a0 a2 75 3d
       0.04431928 0.036059767 0.042332865 0.059969544
0002b0 1c d5 82 3c 18 2d 17 3c 80 ac 33 bb b0 db a3 3b
       0.01597076 0.00922706 -0.002741605 0.005000554
0002c0 22 4b 7f bd 80 d4 5d bb 38 a1 32 bc bc 56 32 3d
       -0.06232751 -0.0033848584 -0.010902695 0.043539748
0002d0 20 54 4e bc bc 17 d0 bc e0 4f f6 bc 04 08 21 3d
       -0.012593299 -0.025401942 -0.030067384 0.039314285
0002e0 80 77 1c 3c 5e 6c 5f 3d 00 fe 03 bd f4 3a 08 3d
       0.009549975 0.054546706 -0.032224655 0.033259347
0002f0 06 b0 70 3d 80 2e 21 bb 46 75 56 3d f0 0f 6b bd
       0.05876162 -0.0024594367 0.052357934 -0.057388246
000300 48 5e e8 3c de 0e 01 3d e4 f2 7d bd d8 a4 9b bc
       0.02836527 0.03150832 -0.061999217 -0.018999502
000310 60 33 6d bb 24 57 6d 3d 38 04 f2 bc f2 9f 20 bd
       -0.0036193952 0.057944432 -0.029543027 -0.039215036
000320 80 0f 12 3a 0c d1 0b 3d 24 a1 73 bd 50 a2 cd bb
       0.00055717677 0.03413491 -0.059479848 -0.0062754527
000330 92 e9 3a bd 40 79 47 bd 20 c6 4b bc 34 74 4b 3d
       -0.045632906 -0.048699617 -0.012437373 0.049671367
000340 78 d5 31 3c d8 dd da 3c 04 1d d2 3c 60 20 ba 3c
       0.010854118 0.026717111 0.025648601 0.022720516
000350 10 d0 ae bb 1e cb 6e 3d b0 c7 c8 3c 92 06 28 3d
       -0.0053348616 0.058299176 0.02450928 0.04102189
000360 72 47 23 3d 8e b2 38 3d d4 5f 1e bd 94 a2 05 bd
       0.039863057 0.045092158 -0.038665608 -0.03262575
000370 30 6e 48 3d 9a 6d 74 3d 4c e6 82 3c e8 43 28 bc
       0.048933208 0.059674837 0.015978955 -0.010270096
000380 d4 41 d1 bc 94 40 b0 bc 3a cd 4b bd fe 5c 61 3d
       -0.025544085 -0.021515168 -0.049756266 0.055020325
000390 60 e1 ca 3c 80 4e 28 3c e8 9f 55 3d be 51 18 bd
       0.02476567 0.010272622 0.05215445 -0.03718733
0003a0 70 33 8b 3c 78 31 99 bc a4 38 1c bd 9c c5 59 3d
       0.0169923 -0.018700346 -0.038139954 0.05316697
0003b0 1c da 86 bc 28 6f 4d bc 80 6d 74 bb f0 0f ca 3c
       -0.016461425 -0.012538709 -0.0037296712 0.024665803
0003c0 f6 06 54 3d ec 8e 59 3d 50 82 be 3b a0 f7 0f 3c
       0.05176445 0.053114817 0.0058138743 0.008787066
0003d0 34 00 d6 bc 90 f3 39 3c f8 cf 2d bc 00 54 d4 bc
       -0.026123144 0.011349574 -0.010608666 -0.02591896
0003e0 16 1d 5c bd ce 3c 67 bd e4 23 7a 3d 64 65 63 bd
       -0.053738676 -0.056454472 0.061069384 -0.055516616
0003f0 ea ad 27 bd 58 e2 23 bd 30 84 41 3d 24 9d 9a bc
       -0.04093734 -0.04001078 0.047245204 -0.018873759

bias f4 [256]
000000 10 58 39 bc 54 f3 bb 3c d8 f1 b2 bc d0 8b c9 3b
       -0.0113125 0.022943176 -0.021843836 0.0061507
000010 84 72 96 bc ac fd f6 3c 90 0b b5 3b b8 fa 76 3d
       -0.018365152 0.030150257 0.00552506 0.060297698
000020 68 ef 2d 3c 3e 55 29 bd 68 90 58 bc 80 2a 35 3b
       0.010616161 -0.04134106 -0.013218023 0.002764374
000030 88 08 81 bc a0 34 12 3d 6c 91 df bc c0 41 3f 3b
       -0.015751138 0.03569472 -0.027291022 0.0029183477
000040 e0 f7 be 3b d8 76 2c 3d d8 16 f6 3c 60 a9 3d 3c
       0.005827889 0.042105526 0.03004019 0.011576027
000050 28 b3 2f 3c dc f2 7f 3d dc f7 e5 3c f0 41 a5 bc
       0.0107238665 0.062487468 0.02807229 -0.020173043
000060 d0 cd 49 3c 88 b7 12 3d 80 2f 22 3c 98 f6 af 3c
       0.012317136 0.03581956 0.00989902 0.02147989
000070 cc 01 25 3d 00 80 86 37 3e c0 23 3d 64 3e df 3c
       0.040284917 1.603365e-05 0.03997826 0.02725143
000080 0a a8 4d bd da 57 61 bd fa cd 0b bd 5e 3a 29 3d
       -0.050209083 -0.055015422 -0.03413198 0.04131543
000090 00 6b cf bc 34 fa 25 3d 38 6f 68 bc 2c 64 64 3d
       -0.025319576 0.040521815 -0.014186673 0.055759594
0000a0 84 d0 53 3d 42 e6 4c bd 28 2a e5 3c 20 7a ca 3b
       0.051712528 -0.05002428 0.027974203 0.006179109
0000b0 2e 9c 20 bd 8a aa 53 bd 58 0b 6d 3d fa 11 66 3d
       -0.039211445 -0.05167631 0.057872146 0.056169488
0000c0 b8 dd 42 3d 14 47 9e bc 18 db 59 3c f4 7e 64 bd
       0.04757473 -0.019321002 0.013296865 -0.055785134
0000d0 bc b2 52 3d 32 c4 17 bd aa 28 61 3d bc 4d 6a 3d
       0.051439986 -0.03705234 0.05497042 0.05720304
0000e0 80 6f a5 3c 10 0a 80 bc 54 cb 6c bd 10 14 38 bc
       0.020194769 -0.015629798 -0.057811096 -0.011235252
0000f0 b0 0f db 3c a0 d4 0a bc 80 18 4a 3b a0 91 23 bb
       0.026740879 -0.008473545 0.0030837357 -0.0024958625
000100 00 d6 90 3a 50 e6 0c bc c0 b7 c3 ba b0 8b 75 bc
       0.0011050105 -0.008599833 -0.0014932081 -0.014986917
000110 30 f6 a8 bb 98 0b 89 3c b8 51 04 3d 76 c7 0f 3d
       -0.005156301 0.016729161 0.032304496 0.03510233
000120 98 78 24 bc 88 0b 4b bc f4 2b 06 3d d8 8f 5d 3d
       -0.010038517 -0.012392886 0.03275676 0.05409226
000130 48 a2 21 3d fc 7d 39 3d 38 37 94 3c 14 0b e0 bc
       0.039461404 0.045286164 0.018092737 -0.027349032
000140 e4 9b 10 bd 74 a4 4d 3d 20 45 cc bc 50 9e b2 bc
       -0.03530492 0.050205663 -0.024935305 -0.021804005
000150 a4 7f 36 3d cc 72 5b bd 94 dc 2f 3d 90 33 b2 3b
       0.04455532 -0.053576276 0.04293497 0.0054382756
000160 10 0f 39 bd 70 d9 2d bd 0c 00 fd 3c ca 30 4b 3d
       -0.04518038 -0.042443693 0.030883811 0.049607076
000170 38 10 30 3c 60 12 74 3d 20 1b 11 3b 98 91 56 3c
       0.010746054 0.059587836 0.0022141412 0.013096236
000180 d0 c2 ec bc 40 d4 a5 3a 10 54 8b bc b4 9d a0 3c
       -0.028901488 0.0012651756 -0.017007858 0.019606449
000190 a2 22 57 3d 0a 2d 77 3d d8 c3 4e bd b8 f1 9c 3c
       0.052523263 0.060345687 -0.05047974 0.01915823
0001a0 f8 53 88 bc 34 7a 7a 3d d8 e6 00 bc 2a e2 3f 3d
       -0.016641602 0.0611517 -0.007867537 0.046846546
0001b0 28 7f de 3c a0 91 14 bd b4 0b 1a 3d 44 c0 fe 3c
       0.027160242 -0.03627169 0.037608817 0.031097539
0001c0 22 ed 5f bd de 6d 10 3d c0 dc f7 3b 12 0c 77 bd
       -0.054669507 0.035261028 0.0075641572 -0.060314246
0001d0 00 5d 57 3b 66 d5 19 3d 18 c5 d6 bc c4 bd eb 3c
       0.0032861829 0.03755703 -0.026217028 0.02877701
0001e0 84 c3 42 3d 24 0e 07 3d 96 e5 3b 3d 20 4e 24 3c
       0.04754974 0.03297247 0.045873247 0.010028392
0001f0 78 1d 72 3d b8 d6 13 3d 10 93 e6 3b 40 32 01 bc
       0.059110135 0.036093444 0.007036574 -0.007885516
000200 34 32 2d bd 68 7f c4 bc bc 14 d0 bc f0 6b b6 bb
       -0.042284206 -0.023986533 -0.025400512 -0.0055670664
000210 60 08 67 bc 26 60 7d 3d e0 c5 17 3b 6a 1b 36 bd
       -0.014101118 0.061859272 0.0023158714 -0.044459738
000220 d6 a9 1d 3d e0 f5 8d bb 46 c8 56 3d a0 0d 5d bc
       0.038492046 -0.004332289 0.05243709 -0.013492018
000230 b0 76 06 bc 7e 52 2a bd f0 21 73 3c ca 7c 07 bd
       -0.008207008 -0.041582577 0.014839634 -0.033077992
000240 04 02 ec bc 04 a2 ec 3c 88 64 34 3c 00 bc c3 3b
       -0.028809555 0.028885849 0.011010297 0.005973339
000250 70 7b 86 3b 3c 1f 57 3d d8 dd 74 3d e0 2e e3 3b
       0.0041040704 0.05252002 0.05978188 0.006933078
000260 f8 e3 4d bd c8 ca 16 3c 94 78 04 3d 50 a9 8f bc
       -0.050266236 0.00920362 0.032341555 -0.01753679
000270 54 27 19 bd 74 a6 ac bc 96 c1 74 3d 60 2f 1c bd
       -0.03739102 -0.021075465 0.05975493 -0.038131118
000280 60 fd 13 bc 64 c4 f5 bc c6 de 16 3d 4a b2 6c bd
       -0.009032577 -0.030000873 0.036833547 -0.057787217
000290 d8 b1 33 bc 90 12 b9 bc 98 64 54 bc 88 42 e6 bc
       -0.010967694 -0.02259186 -0.012963437 -0.028107896
0002a0 e0 0c 73 3d 5e 24 4d 3d 8a 22 1c 3d 5c bc c5 bc
       0.05933845 0.05008351 0.038118877 -0.024137668
0002b0 0a 00 43 bd ee af 18 bd 1e 11 56 3d 90 cc 38 3c
       -0.04760746 -0.037277155 0.052262418 0.01127924
0002c0 9a ff 65 3d 80 ed 18 3b b2 33 2a bd 20 3e 38 bc
       0.056151964 0.002333492 -0.041553207 -0.0112452805
0002d0 60 0c 04 bc d0 f7 7f 3d dc 3e ec 3c fc 79 8e 3c
       -0.008059591 0.06249219 0.028838567 0.017392151
0002e0 18 54 4d bc 3c b9 84 3c b2 ce 5c bd 60 59 b6 bc
       -0.012532257 0.016201608 -0.053908058 -0.022259414
0002f0 d8 13 0e bc 00 96 e8 3c 60 9d a7 3b 74 3a 58 bd
       -0.008671723 0.028391838 0.005115196 -0.05279012
000300 18 bb 03 bd e0 d4 e6 3c 20 0e 40 3d 24 5b 3f 3d
       -0.03216085 0.028177679 0.04688847 0.046717778
000310 1e 7c 1b 3d ce e1 04 bd 82 c2 17 bd 8c 97 d0 bc
       0.037960164 -0.032441907 -0.03705073 -0.025462888
000320 1c 95 19 bd 52 e1 54 bd 10 77 db 3b 94 d9 3b bd
       -0.037495717 -0.051972695 0.006697543 -0.045861796
000330 f8 e3 f3 bc 2c cb 9b 3c 40 67 bb ba 7c e9 ca 3c
       -0.02977179 0.019017778 -0.0014297739 0.024769537
000340 ee 6b 61 3d 1e 28 15 3d 54 5a f6 bc 30 65 8f 3c
       0.05503457 0.03641521 -0.030072369 0.017504305
000350 30 17 d0 bc d4 c4 c3 bc 90 08 a6 3c 3e ad 56 3d
       -0.025401682 -0.023897566 0.020267755 0.05241131
000360 68 f4 1e 3d 6c cb aa 3c 14 e4 34 bd ec b4 07 bd
       0.038807303 0.020848952 -0.044162825 -0.033131525
000370 6a 22 45 3d a8 bc be bc ea 60 16 bd 98 13 33 3d
       0.048128523 -0.023283318 -0.03671352 0.043719858
000380 10 81 21 3c e8 70 8c bc a0 95 dd 3b 68 5a f4 3c
       0.009857431 -0.017143682 0.0067622215 0.029828265
000390 c0 9b bf 3c b0 b5 34 3d 1e 6f 79 3d a0 04 37 3d
       0.023389697 0.044118583 0.060896985 0.044682145
0003a0 b2 1f 6e 3d 80 77 4f bd 88 0e cf bc 80 60 5c ba
       0.058135696 -0.050651073 -0.025275484 -0.00084067136
0003b0 40 11 6d 3d 4c 37 37 bd b8 5e 31 bd 1e 31 6c 3d
       0.05787778 -0.04473047 -0.04330322 0.05766403
0003c0 9c 12 0e 3d b0 fd 2e 3c d8 10 fb 3c 82 da 7a bd
       0.034685716 0.010680601 0.03064768 -0.06124354
0003d0 60 29 90 bb e0 b6 3d bb a8 87 70 3d 44 3b 48 3d
       -0.0043994635 -0.0028948113 0.058723122 0.048884645
0003e0 1c 3e a1 3c 28 a6 72 3c d0 d4 e4 3b 58 75 51 bd
       0.019682936 0.014810123 0.006983377 -0.0511373
0003f0 90 b8 f8 bc f0 9b 02 bc d4 29 cd 3c 7e 35 32 bd
       -0.030361444 -0.007971749 0.02504436 -0.043508045
