src/gan_implementations/wassertein_gan_gp/byte/models/Conditional_GAN_byte_features/discriminator/discriminator.pt (torch, 168535 bytes, 5 tensors)

weight f4 [128, 256]
000000 f5 dc 97 3d 41 a8 83 3d bc f0 60 3d 9b d9 8c 3c
       0.07415191 0.06428576 0.054917082 0.017193606
000010 52 c9 94 3d 8e 4e 5f 3c 41 03 95 bc fb f4 13 3d
       0.07264961 0.013629569 -0.018190028 0.036122303
000020 f0 46 59 bc 0c 9f bd 3b cf 1b 8c 3d 9b 55 15 3d
       -0.013261542 0.005786782 0.068412416 0.036458593
000030 aa 7c cc 3b ec 18 f8 3c aa 52 58 bd c9 4e ac bc
       0.006240447 0.030285321 -0.05281321 -0.021033661
000040 87 3f aa bc d8 5d 78 3d 5a ea 99 bc 66 dd a5 bc
       -0.020782245 0.06063637 -0.018788505 -0.020247173
000050 fb 59 61 bc 6d 61 ef 3c b4 a6 93 bd 36 66 69 3d
       -0.013754363 0.02922126 -0.072095305 0.05698224
000060 7e f4 0b 3c c7 ac f7 3c 99 9c b7 3a 56 d5 28 bd
       0.008542178 0.030233754 0.0014008462 -0.041219078
000070 38 b7 06 bd db a1 43 bc 71 8b 43 bd 1f 9a 2f 3d
       -0.032889575 -0.011940445 -0.047740404 0.04287159
000080 03 42 3e 3c 44 29 26 3d de dc f0 bb 58 75 54 3d
       0.011612418 0.040566698 -0.007350548 0.05186972
000090 4a ff be bc d9 cc 17 3d 29 ed 80 bd 2a 3b 7e 3d
       -0.02331509 0.037060592 -0.06295235 0.062068142
0000a0 93 d4 7b 3d 22 8a 13 bb d7 da 61 3d 07 46 14 3d
       0.061482023 -0.0022512753 0.055140343 0.036199596
0000b0 af 9b 69 3d 62 92 43 bd ec 1e 48 3d c7 1f 9a bc
       0.057033237 -0.047747023 0.048857614 -0.01881398
0000c0 0c 34 49 3d 56 59 06 3d 4b 05 07 3b 0c 48 4c 3d
       0.0491219 0.03280004 0.002060252 0.049873397
0000d0 75 5f 59 3d 76 72 c8 3c bc 17 df 3b 35 f0 63 3c
       0.05306955 0.024468642 0.0068082493 0.01391225
0000e0 d1 73 65 3d e7 f4 0e 3d 26 ff df 3c 1c 65 93 3d
       0.056018654 0.034901526 0.027343344 0.071970195
0000f0 71 62 41 bc d2 d7 6a bd ee 1e 59 bd 27 7c 23 bd
       -0.011803255 -0.05733473 -0.053008012 -0.039913323
000100 e1 63 92 3d 11 28 04 3d e2 8b 0a bb 33 dc eb bc
       0.07147957 0.032264773 -0.0021140506 -0.028791523
000110 24 02 96 bd 59 db 54 3d d7 02 2a 3d db 07 92 bd
       -0.07324627 0.051967 0.041506615 -0.071304046
000120 2b 73 64 bd ec b5 78 3d 63 e6 5a bd de 85 d5 bc
       -0.055773895 0.06072037 -0.05344237 -0.02606481
000130 ad 4b e7 bc b0 a6 6d bd 44 84 14 bb f7 47 8d bd
       -0.028234327 -0.058020294 -0.0022661844 -0.06898492
000140 79 80 93 3d 82 15 e7 3c 81 c8 84 bd 9d 74 85 3c
       0.072022386 0.028208498 -0.064835556 0.016290957
000150 10 55 ad bc 4b 9e 29 bd 7b 08 04 bb 60 71 8c bd
       -0.021158725 -0.041410726 -0.0020146656 -0.06857562
000160 e5 90 c8 bc de 38 96 bc 41 84 ab bc 2d db 40 3d
       -0.024483154 -0.018337663 -0.020937087 0.047084022
000170 35 65 3e 3d ae 28 06 bd e0 9c dc 3c 04 35 a6 bc
       0.046483237 -0.03275364 0.026930273 -0.020288952
000180 72 26 0e bd f5 d5 cc 3c bd 45 6d bd 55 dd 0c 3d
       -0.034704633 0.025004366 -0.057927836 0.034390766
000190 67 37 36 3c d0 c8 3e 3d 77 33 85 bc 6a 9f 2f bd
       0.011121607 0.04657823 -0.016259892 -0.04287664
0001a0 a4 73 5b 3d 21 21 87 3c 8d 68 40 bd fd 80 bf bb
       0.05357708 0.01649529 -0.046974707 -0.005844234
0001b0 a5 15 32 bd 45 21 a3 3c fc 9c 34 3d 61 e9 86 bc
       -0.043477673 0.019913325 0.044095024 -0.016468706
0001c0 fe ee 26 3b e0 b1 63 3c 94 45 8c 3d 85 03 0e 3d
       0.002547204 0.013897389 0.068492085 0.034671325
0001d0 8b 53 a7 bc b2 c7 41 bd bc 4a 06 bc 94 c3 8f bc
       -0.020425579 -0.047309585 -0.008196529 -0.017549314
0001e0 a1 cb 14 3c 75 a0 07 bd 3b 88 4c bd 18 89 b7 3b
       0.009081752 -0.033112008 -0.049934607 0.0056010596
0001f0 69 2d b8 3c 3c 51 85 bd d0 99 ef 3c 98 9e 4a bd
       0.02248259 -0.06509635 0.029248148 -0.049467653
000200 77 ae 67 3d a4 66 5f bd 8c 0c 80 bd 0a 9f 09 bc
       0.056562867 -0.054541245 -0.06252393 -0.008399734
000210 81 85 51 bc c3 69 a0 b9 67 79 8d bd 65 82 1a 3c
       -0.0127881775 -0.00030596377 -0.06907921 0.009430503
000220 2a 73 52 bd c5 0f 3f 3d 3a dd 3e bd 6f 0c b6 3c
       -0.05137936 0.0466459 -0.046597697 0.022222726
000230 7e 4c ec bc 3d 32 62 3d dd 8d 77 3d 56 7b c8 3c
       -0.028845068 0.055223692 0.060438026 0.024472874
000240 1e 7f 87 3c 4c 5d ad 3c cd cf e3 bb a0 ff 00 3d
       0.016540106 0.021162651 -0.006952262 0.031493783
000250 1f fc d2 3c 02 11 b4 3c 63 27 03 bd 5d b6 88 38
       0.025754986 0.021980766 -0.032019984 6.518953e-05
000260 11 14 78 bd ab 24 e5 bc 77 6f e4 3b af 19 89 3c
       -0.06056601 -0.027971586 0.0069712955 0.01673588
000270 79 5b 21 3d 99 d7 16 bd 21 28 35 3d 3e 68 5f 3c
       0.039393876 -0.036826704 0.044227723 0.013635693
000280 92 ed 74 bc 4f fa 8c bd 25 36 83 3d 91 85 6c 3c
       -0.014949219 -0.0688368 0.064068116 0.014436142
000290 9c e4 3c 3d 8e cc 6c bd f5 a9 49 bd 2b 30 8e 3c
       0.046116456 -0.057812266 -0.04923435 0.017356953
0002a0 f8 a7 97 3c e2 e7 9a bc 53 14 39 bd 35 0e 0f 3d
       0.01851271 -0.018909398 -0.0451854 0.03492566
0002b0 bf 2d db 3b 55 cb 32 bd b5 63 ca 3c 83 64 7f bd
       0.006688803 -0.043650944 0.024705747 -0.062351715
0002c0 65 06 86 bc 03 fb 05 3c a4 f6 a2 3c 36 a9 d8 bc
       -0.016360471 0.008177522 0.019892998 -0.026447874
0002d0 6f 28 50 3c c4 c0 b8 3b 78 0e 00 3d bc 53 33 3d
       0.012704953 0.005638214 0.0312638 0.043781027
0002e0 04 f1 ab 3c d7 21 3a bd 71 c9 70 bd e4 be 49 3d
       0.020988949 -0.04544243 -0.05878586 0.049254313
0002f0 17 b8 23 bd 1e fb 86 bd 51 44 f9 ba 2f 20 1a 3c
       -0.039970484 -0.065908656 -0.0019017552 0.009407087
000300 86 be 2c bc 0e 19 a3 bc 44 78 6f bd 0a 0a 5e 3d
       -0.010543471 -0.019909408 -0.058464304 0.054208793
000310 1e db 31 bd ad 17 cc bc f3 f7 4f 3c 64 34 d0 bb
       -0.043421857 -0.024913633 0.012693393 -0.0063539017
000320 c2 d0 37 bd d5 03 04 3d 6c 83 5a bd ab 4d 1e bc
       -0.04487682 0.032230217 -0.05334799 -0.009662072
000330 7e da 04 bd fc 1f 66 3d f1 e3 bd 3c c4 5e 97 3d
       -0.032434933 0.056182846 0.02317998 0.07391122
000340 1d 30 fc 3c af 9e 5f 3d f6 5f 30 3d 1c 9d 02 3d
       0.030784661 0.05459469 0.043060265 0.031888112
000350 b3 60 2b 3d 5e 69 4c bd 32 b8 94 3d 40 76 7d bd
       0.041840266 -0.049905173 0.07261695 -0.06188035
000360 8a 10 47 bc 2c df 19 bd dd 3e 24 3d ec 3b 69 3d
       -0.012149939 -0.03756635 0.040099014 0.05694191
000370 62 f5 38 3d 23 34 97 3d c7 35 2c 3d 11 5e 89 bb
       0.04515589 0.07382991 0.042043474 -0.004192122
000380 99 43 04 bd 08 c1 0b bd 65 11 76 3c e9 b6 3d 3d
       -0.03229103 -0.034119636 0.015018796 0.046317015
000390 dc 2e 80 bd 0d 20 21 3d c7 05 05 3d 09 17 68 b8
       -0.06258938 0.039337207 0.032476213 -5.5334564e-05
0003a0 94 6c 3b 3d a0 29 06 3d d6 09 66 bd 65 6b b5 bc
       0.045757845 0.03275454 -0.056161724 -0.022145936
0003b0 44 64 a1 3b bf 1e 89 3b 54 81 01 bd 95 d9 95 bd
       0.0049252827 0.0041845734 -0.031617478 -0.07316891
0003c0 46 df 8a bd 6a 05 26 3c 96 8d 3a bd a2 eb b8 bc
       -0.06780867 0.010133127 -0.045545183 -0.022573296
0003d0 5a 18 95 bd 6b 03 71 3c 73 cc 82 3d 1c 81 ad bc
       -0.07280035 0.014710288 0.06386652 -0.021179728
0003e0 1e bc b7 bc 73 5a 5f 3d c7 4a 23 bc 40 55 36 3c
       -0.022428568 0.05452962 -0.009966559 0.011128724
0003f0 39 b9 12 bc d4 ee 1c bb 1a 96 98 bd 97 c0 30 3d
       -0.008955293 -0.0023946064 -0.074505046 0.043152418

bias f4 [128]
000000 47 b5 70 3d a7 59 38 3d bc cf 74 bc 8b 84 a6 bc
       0.05876663 0.045007374 -0.014942106 -0.020326873
000010 bb 38 1a 3d 89 29 2c 3c 9b 2b 68 3d 18 04 7c bd
       0.03765176 0.01050795 0.05668221 -0.06152734
000020 4f b0 c8 3c 0b 64 a0 bc 89 9a 94 b9 ad 56 fc ba
       0.024498133 -0.019578954 -0.00028343897 -0.0019251906
000030 a5 c5 43 3d 24 5f ad bc d9 05 22 3d d0 3b 54 bd
       0.04779591 -0.02116353 0.039556358 -0.051814854
000040 d2 d5 21 bc d8 19 51 bc ba 74 85 3c 9b a4 1a bd
       -0.009877639 -0.012762509 0.016291011 -0.037754636
000050 aa bb 50 3d da e5 71 b9 db aa ac 3c 44 a5 d7 3b
       0.05096022 -0.00023069177 0.021077564 0.0065809805
000060 e1 36 08 bd 78 ce 7b 3d 20 b2 1c 3d 50 07 0c bc
       -0.03325546 0.0614762 0.03825581 -0.008546665
000070 e4 66 89 bc 52 ae 93 3b a4 74 21 bc 2a 98 52 3d
       -0.016772695 0.0045068646 -0.009854469 0.051414646
000080 36 a2 20 bd 7f 29 d2 bc 71 ba 85 bd db d1 5b bd
       -0.039217196 -0.025654553 -0.065297015 -0.05366693
000090 10 75 0d bd 8d a3 c2 3c ab 01 56 3d 6d 54 f0 3c
       -0.034535468 0.023759628 0.052247684 0.029337132
0000a0 bc 74 70 bd d9 b5 3d bc 1b 8e 67 bd 9c 82 f9 3c
       -0.058705077 -0.011579 -0.056532007 0.030457787
0000b0 3e f2 33 bd a1 a0 1f 3c 8c d6 2e bd a6 29 12 3d
       -0.043932192 0.009742887 -0.042685077 0.03568425
0000c0 f4 b6 2c bc 3b 20 0c 3d bd 3b b4 bb 93 b4 46 3d
       -0.010541666 0.034210425 -0.0055002854 0.048512053
0000d0 00 80 54 3c 44 c6 bd bc 46 7d 4c 3d af 4b d2 bc
       0.012969971 -0.02316583 0.049924158 -0.025670854
0000e0 c6 2b 00 3d b3 91 2a 3d f0 31 68 3d 0e fa 69 3c
       0.031291746 0.041642856 0.05668825 0.014280809
0000f0 ab 97 10 3c 0f bc d2 bc 87 1e 0c 3d 89 d1 38 bd
       0.008825223 -0.025724439 0.0342088 -0.045121703
000100 bb bc 5d bc e4 8a fe 3b 78 55 fc 3c a4 64 1a bd
       -0.013533766 0.007768022 0.030802473 -0.037693635
000110 fa b5 25 3d dc 91 64 3d 03 e5 b6 3a 72 8a 6d 3b
       0.04045675 0.055803165 0.0013953749 0.003624585
000120 0b 79 3e 3d 44 74 89 3b ff 33 9b bc 3e d3 de 3c
       0.046502154 0.004194768 -0.018945692 0.027200337
000130 a6 2e be b8 01 9a b0 bc d8 0d 2d bd 84 f2 41 3d
       -9.068595e-05 -0.02155781 -0.04224953 0.04735042
000140 f8 3a 6c bc 57 87 6d bd 5c 69 15 3d 86 a3 29 bd
       -0.014418356 -0.0579904 0.03647743 -0.041415714
000150 8b 9c ef bb 22 8a 89 3c bb ea 5a bd 34 06 db 3c
       -0.0073123625 0.0167895 -0.053446513 0.026736356
000160 91 50 68 3d 67 6a 70 bd 58 a9 ee bc 54 b7 98 bb
       0.05671746 -0.058695223 -0.029133484 -0.0046605263
000170 3a 0f 99 3b 88 8f 91 3c 2f 5e c9 3b ef 86 59 3d
       0.0046710046 0.017768636 0.0061452608 0.0531072
000180 ff 75 10 bd 1c 52 44 3d 08 75 52 3d 8c e8 05 bd
       -0.03526878 0.047929868 0.05138114 -0.032692477
000190 84 04 06 3c 50 a6 68 bd aa 73 35 3d d5 c8 c0 3c
       0.008179788 -0.056799233 0.04429976 0.023533264
0001a0 b1 ae 00 3d 86 c6 83 bc 17 11 c2 3c da c1 a8 b6
       0.0314166 -0.016085874 0.02368979 -5.0293575e-06
0001b0 ac c2 c5 bb 1f 43 06 bd 64 30 db 3c 77 94 1e bd
       -0.0060351696 -0.032778855 0.026756473 -0.038715806
0001c0 de d4 dc bb 09 f8 2c bc 5f 73 10 3d fd 8c 1c bd
       -0.006739243 -0.010557183 0.035266276 -0.038220394
0001d0 9b e0 d4 3b 81 d3 07 bd 3f eb d0 bc 5e 4d 2f 3d
       0.0064965016 -0.03316069 -0.0255028 0.042798392
0001e0 2c 8f 1b bd cc c0 61 3d c3 ca 06 3d d3 5f 3e bd
       -0.037978336 0.055115506 0.032908212 -0.046478104
0001f0 7d 34 3e bd c6 84 11 3c 58 eb 9f 3b db 9d 70 3b
       -0.046436775 0.008881753 0.00488035 0.0036715183

weight f4 [64, 128]
000000 35 e0 b7 bd 4a 65 94 3b 10 fd 83 3d b3 45 1e bd
       -0.08978311 0.004528676 0.06444752 -0.03864069
000010 26 ee ab 3d a6 01 28 3d eb 94 89 3d 49 d0 88 bd
       0.083950326 0.041017197 0.06717857 -0.06680352
000020 55 40 dd bc 86 68 87 bc 48 ad 75 bd bd 55 b2 3c
       -0.027008215 -0.016529333 -0.059979707 0.021769399
000030 7f 60 30 bd 42 66 a6 3c c3 70 b7 bd 7d 86 fa 39
       -0.043060776 0.020312432 -0.089570545 0.00047783917
000040 a3 2f 1f bc 98 6f 89 3d bf d9 0d bd 52 27 0a 3c
       -0.009715947 0.06710738 -0.034631487 0.008432226
000050 07 cd c6 3b 25 c8 6a 3d d5 40 1c 3d b4 ce 1b 3d
       0.0060669216 0.05731978 0.038147766 0.038038924
000060 07 54 89 3d 29 6d ad 3d ad aa e3 3c 47 da 93 bc
       0.0670548 0.08468086 0.027791345 -0.018048419
000070 05 2e 53 bd 47 5c 21 3d 04 ae 87 bd 1a ba a4 bd
       -0.05155756 0.039394643 -0.06624988 -0.080433086
000080 be 8e c6 3d d3 bc 5a 3d a3 fb e8 3c ce 83 27 3b
       0.09695195 0.053402733 0.028440302 0.002556074
000090 13 c0 74 3d 3e 0b 93 3d 55 1f d1 3d ad 23 23 3d
       0.05975349 0.07179879 0.10211054 0.039828945
0000a0 5e 90 25 bd be fe 7b bd c8 5e 40 bd c1 d8 43 3d
       -0.040420882 -0.061522238 -0.04696539 0.047814135
0000b0 41 2e 1e bd 3c be 95 3c 87 9e 27 3d 22 34 56 3d
       -0.03861833 0.018279187 0.040922668 0.05229581
0000c0 64 64 16 3d c2 35 9c bd c4 71 93 bd 68 bf 56 3b
       0.036716834 -0.07627441 -0.071994334 0.0032767896
0000d0 90 50 be 3d f5 c3 1a 3d a0 e4 c3 3d b4 5f 51 bb
       0.0929271 0.037784535 0.09565091 -0.0031947913
0000e0 af 61 d2 bc 21 00 b0 3c a2 aa 4e 3c 4c ee 97 3c
       -0.025681345 0.021484436 0.012613924 0.018546246
0000f0 03 21 6d 3c 4d c1 1d bd 22 0d 87 3d f8 a8 96 bd
       0.014473203 -0.038514424 0.06594302 -0.07356447
000100 ee 59 47 bd 18 24 28 3c f9 9a 3a 3d 2f 7f 73 3d
       -0.048669748 0.010262512 0.04555795 0.059447464
000110 09 76 75 3d b0 bf 89 bd c0 47 18 3d 94 43 12 3d
       0.05992702 -0.067260146 0.0371778 0.03570898
000120 77 cb d9 3c 6b cb 42 bd 30 87 7c 3c c5 b7 22 3d
       0.026586277 -0.047557276 0.015413091 0.039726038
000130 4c 2f 3a 3c 2f 10 91 bd 06 b2 16 bd 93 64 0f 3d
       0.0113638155 -0.07083165 -0.03679087 0.035008024
000140 73 67 93 3d 9c 5b 44 bd 0f 2a 72 bd 3d b6 e3 ba
       0.07197466 -0.047938928 -0.05912214 -0.0017373037
000150 f6 6c 96 3c d2 71 90 3c f8 d9 68 bd da 4c f7 3c
       0.018362503 0.017632399 -0.056848496 0.030188013
000160 a1 c1 80 bc e0 e0 4e bc 5a f2 b5 bd bf cd 38 bd
       -0.01571733 -0.012626857 -0.088841155 -0.04511809
000170 ac ac 09 3d 76 cf 55 bc 0b 9d 63 3b f7 56 48 3c
       0.03361194 -0.013049951 0.0034731056 0.012227765
000180 96 5e 88 bd 7c e6 93 3d c3 fc 8b 3d 42 c1 c5 3d
       -0.06658666 0.07221696 0.0683532 0.096560016
000190 a6 1f d0 3c 66 e8 92 3c 4e c6 2a bc d7 a7 07 bd
       0.025405716 0.017933082 -0.010423256 -0.03311905
0001a0 87 27 93 3d 89 e0 a4 bd 53 2d f1 3c b5 cb 7c 3d
       0.071852736 -0.08050639 0.029440558 0.061717708
0001b0 b2 1d 73 3d 47 67 91 bb cd 1d 3e bd b7 66 a7 3c
       0.05935449 -0.0044373604 -0.04641514 0.02043472
0001c0 e2 ea 14 bd d8 63 40 bd 04 cf f6 3c a2 43 69 bd
       -0.036356814 -0.04697022 0.03012801 -0.056949265
0001d0 fa ae 6c 3d 9e 5d 9d bd c4 44 ae 3d 75 ba 6d 3d
       0.05778406 -0.07683872 0.0850921 0.058039147
0001e0 b8 1b 23 bd fc 48 8f bd 4b fd 7e 3d 15 37 c6 bd
       -0.039821357 -0.069963425 0.062253278 -0.09678475
0001f0 d8 4d 83 3d c1 59 19 3d 96 53 68 3c 41 f6 07 3d
       0.06411332 0.03743911 0.014180085 0.03319383
000200 d6 5b 08 bd 3a 02 86 bd 76 63 b8 3d be cf 8f bd
       -0.033290707 -0.065433934 0.09003346 -0.070220456
000210 7f 81 96 bb 7e 0a 81 bd 4a d2 40 bd 4b 27 c5 3d
       -0.004593074 -0.06300829 -0.047075547 0.09626635
000220 42 f4 45 bd 3f ac 26 3d d1 60 49 bd 1f 9e 04 3d
       -0.048328646 0.04069161 -0.049164597 0.03237736
000230 01 f0 2b bd 09 c6 85 3c 4a dc 81 3c b9 57 b3 bd
       -0.041976932 0.016329782 0.015852112 -0.08756966
000240 90 68 8c 3d 15 e4 86 bd 9e a2 6d bb d5 51 5f bc
       0.06855881 -0.06586472 -0.0036260257 -0.01363035
000250 4f 81 60 3b 68 16 57 bc 31 5a ae bd 08 ad 76 bd
       0.0034256761 -0.013127901 -0.085132964 -0.06022361
000260 f2 9a 96 bd 4c ad 9d 3d 1d 6b ae 3c c5 01 fd bc
       -0.07353772 0.076990694 0.02129131 -0.030884633
000270 29 99 75 bd 8e 0f 98 3d dc 43 3c 3d d3 a0 98 3d
       -0.059960518 0.07424842 0.045963153 0.0745255
000280 84 c7 5c bd f3 4d b9 3d 6f 42 37 bd 8e 42 65 3d
       -0.05390121 0.09048071 -0.04474109 0.055971675
000290 c3 bf 18 bb 3e 65 d7 3c 27 a3 cc 3c 02 01 c5 3d
       -0.0023307658 0.026293393 0.02498014 0.09619333
0002a0 f6 3a aa bd 9f 2a 16 bd 0a 50 a1 3d ee c0 40 bd
       -0.08312027 -0.03666174 0.07876594 -0.047058992
0002b0 49 5e 20 bd 45 41 c1 bb 91 64 65 bc ee d2 c2 bc
       -0.039152417 -0.0058976733 -0.014001028 -0.02378222
0002c0 9b 0f 1b bd 57 8c 88 3d af e8 0d 3d f5 f6 cb 3c
       -0.03785668 0.06667393 0.034645732 0.024898032
0002d0 6c 4c a4 3c c9 30 94 bc b8 90 9b bd 36 c2 2f bd
       0.020055972 -0.018089669 -0.07595962 -0.042909823
0002e0 d5 06 9e bd c1 e8 a3 bb 21 81 94 bc 3f da ea 3b
       -0.07716147 -0.0050021117 -0.01812798 0.0071671302
0002f0 22 d4 ab 3c 9f ff 83 3d 05 4f 66 3d b4 9f a3 bc
       0.020975176 0.0644524 0.056227703 -0.019973613
000300 73 73 f2 bc 0f 29 7b 3d 38 6e 5d bd 45 06 45 bb
       -0.029596066 0.061318453 -0.05406019 -0.0030063551
000310 be 52 17 bd 49 be 4c bd c1 ef df 3c 2f 28 7e 3d
       -0.036944143 -0.049986158 0.027336003 0.06205004
000320 e0 a5 15 bd 10 bc 93 3d 2b b9 86 3d a0 2c 40 bd
       -0.036535144 0.072136045 0.06578287 -0.046917558
000330 37 a3 b2 bd 71 f3 95 bd ad 7b b0 bd 7c 2e 1e bd
       -0.08722537 -0.073218234 -0.08617339 -0.03861855
000340 cf c1 85 bd 05 0b cd 3d fe 02 46 bc ec 70 8f bc
       -0.06531107 0.100118674 -0.012085674 -0.0175099
000350 66 91 d2 bb f8 7b 83 3d a8 26 f9 3b 2d 32 8a 3c
       -0.0064260243 0.064201295 0.007603485 0.016869629
000360 81 c3 99 3d 63 47 40 3d 30 93 57 3d 42 4b c9 3d
       0.075079925 0.04694308 0.052630603 0.098288074
000370 90 13 f0 bc 12 ab 3e 3c f8 22 f7 3c f3 00 2c 3d
       -0.029306203 0.011637466 0.030168042 0.041993093
000380 cd b2 67 bd 46 d6 96 3d 83 4e bc ba 72 3f 99 3d
       -0.056567002 0.07365088 -0.001436666 0.07482804
000390 49 c7 61 bd 8b 28 07 3c ef 6e 35 bd 67 1b 91 3d
       -0.055121694 0.008249412 -0.044295248 0.07085305
0003a0 79 60 7a bd a8 2f 85 bd 0d b2 ea bc 85 1d 39 bc
       -0.06112716 -0.0650323 -0.028649354 -0.011298542
0003b0 54 f1 cb 3d b6 de 81 bd 23 da 57 bd 38 b1 c9 3a
       0.09958139 -0.06341307 -0.052698266 0.0015387898
0003c0 c5 90 41 bd 1c 27 b5 3c c8 8c 13 bd 94 b7 fb 3c
       -0.047257204 0.022113375 -0.03602293 0.030727185
0003d0 ff 6a ab 3d 38 dd 42 3c 24 19 3b 3d 76 48 c5 bc
       0.08370017 0.011893563 0.045678273 -0.024082404
0003e0 7a f7 92 3d 47 9c 95 bd ba 25 2e 3c df 19 d1 bd
       0.07176109 -0.07305198 0.010629112 -0.10210013
0003f0 3d 88 6e ba ec 68 f8 36 a1 d3 c4 bc f3 cf 34 bd
       -0.00090992806 7.4031905e-06 -0.024026694 -0.04414363

bias f4 [64]
000000 2b 1c 2d bc 44 a7 9d bd 0a 1f 10 3d ed 7c 83 bd
       -0.010565798 -0.07697919 0.03518585 -0.06420312
000010 d0 eb 1d bd f4 9f 9d 3d 18 80 2f bc 3e 30 cc bb
       -0.038554966 0.07696524 -0.010711692 -0.006231337
000020 94 4d 64 bd 6d 6c 8e 3d e0 2b c3 bc ab c7 94 3c
       -0.055738047 0.06954274 -0.023824632 0.018161615
000030 7d 50 1b 3d 08 a3 a8 bd ed d5 fc bc 51 5a 59 bd
       0.037918556 -0.08234221 -0.030863727 -0.053064648
000040 52 97 3b 3d 7a b6 08 bd 62 e8 42 ba 39 78 d0 3c
       0.045798607 -0.03337715 -0.00074351404 0.025447952
000050 4c 34 fb bc ea 67 a6 bd 3d 48 8e bd 45 d6 86 bc
       -0.030664586 -0.08125289 -0.06947372 -0.016459594
000060 79 14 88 3d e8 6e 37 bd b7 3a 89 bd 07 70 01 3d
       0.0664453 -0.044783503 -0.06700652 0.03160098
000070 48 c5 89 3d 0a d5 ad 3d f0 64 56 bc 52 84 01 3d
       0.067270815 0.084878996 -0.013085589 0.03162033
000080 f0 94 12 3d 2d bb 52 bd 76 33 98 bd 11 83 e6 bc
       0.03578657 -0.051448036 -0.074316904 -0.02813867
000090 6d b6 2f 3d ed 6a 8b 37 ce 7c 86 3d ae e3 91 bc
       0.042898584 1.6619882e-05 0.06566773 -0.017808761
0000a0 87 9b 5f bb 20 81 91 3c 8e 4d a7 3d e8 5c 63 bd
       -0.00341198 0.017761767 0.08169089 -0.055508524
0000b0 96 1a 30 3d a8 bc 3a bd aa e7 1c bc 0b 20 1a 3d
       0.042994104 -0.045590073 -0.009576717 0.037628215
0000c0 9d b9 94 3d 12 44 3e 3b 1d 33 67 bc dc 0d 9c bd
       0.072619654 0.0029032272 -0.014111307 -0.07619831
0000d0 a3 77 7d 3d ab 72 0d 3d bf db 5f 3d b3 d4 b9 bb
       0.061881673 0.034533184 0.054652926 -0.0056711077
0000e0 c4 fc 38 bc 16 20 91 bd 4c fb 5b bc 15 2d 2e 3d
       -0.011290733 -0.07086198 -0.013426613 0.042523462
0000f0 70 ff bb 3b 5c 4e 53 3c 11 e7 b9 3c 38 c5 66 bd
       0.0057372376 0.0128971 0.022693189 -0.056340426

weight f4 [1, 64]
000000 fc 04 22 bd 94 03 9d bd 56 68 f0 bd bc ee 8f 3d
       -0.039555535 -0.07666698 -0.117386505 0.07027957
000010 c9 28 c9 bd 30 e7 83 bd 19 f8 3c 3d d2 7f 00 be
       -0.09822232 -0.0644058 0.046135042 -0.1254876
000020 46 7e 99 bd 39 a6 03 3e 4e b6 c9 3d 3f 93 e4 bc
       -0.07494788 0.12856378 0.09849225 -0.027902244
000030 e9 91 41 bc f1 31 0b 3d 2d 27 b0 bd 1f 87 48 bd
       -0.011814573 0.033983175 -0.08601222 -0.048956987
000040 f5 3d f5 3d d9 9a 02 3d 1d 89 b4 3d 5c f0 a1 3d
       0.11974708 0.031885955 0.08815215 0.07907173
000050 96 e1 a7 3d 4e 8d 1d bc 1f 3d fa bd c3 df 13 bd
       0.08197324 -0.009616209 -0.12218689 -0.036102068
000060 e1 ac 5b 3d e1 d5 0e 3e 27 ec d8 3d 87 32 94 bd
       0.053631667 0.13948776 0.105919175 -0.072362
000070 e5 57 f7 bd 71 8a f4 3d 35 96 73 3d 4c 74 e1 3d
       -0.120773114 0.11940468 0.05946942 0.1100851
000080 fa db b1 bd ef 26 ea 3c ed e5 a2 3d 96 b3 58 bd
       -0.08684535 0.028583018 0.07954011 -0.05290564
000090 7e a3 23 bc c6 f3 b6 3d d6 4a 83 bd 14 f5 5e 3d
       -0.00998771 0.08933215 -0.06410758 0.054432943
0000a0 8d 42 22 3d 19 c7 1f 3d 4d 1c f1 bd b9 d5 0c 3e
       0.03961425 0.039008234 -0.11772976 0.13753404
0000b0 85 0b d3 3d de b4 5d bd 8d 2e e4 bd 9e d2 ad bd
       0.103049316 -0.054127567 -0.11141691 -0.08487438
0000c0 94 d0 0a bc a8 ac 00 3e c1 71 dd 3d 4d 4b ae 3d
       -0.00847258 0.12565863 0.108127125 0.08510456
0000d0 d3 41 09 be ef c8 a1 3c 34 f4 c3 3d eb f8 cf bc
       -0.13404016 0.019749133 0.095680624 -0.025387248
0000e0 4d fe 1c bd 38 7a f0 3c 56 ad c7 3d 75 8e 6b bd
       -0.038328458 0.029355153 0.09749858 -0.057508904
0000f0 77 fd 99 bd 6c 2b 12 3c f6 6d 91 bd f3 0c 1c bd
       -0.07519048 0.008921485 -0.071010515 -0.038098287
