src/ml_models/torch_models/inception_detector/models/imports_model_2018/checkpoints/model_checkoint_0.pt (torch, 530284 bytes, 5 tensors)

dense1.weight f4 [256, 256]
000000 d6 4b 0a bd 5f b4 80 bd 8f bf d5 3c 0a 7b b5 bb
       -0.03376373 -0.06284403 0.026092319 -0.005538349
000010 43 e3 39 bd 14 4f 90 3c 66 72 29 bd 4f 4e 1b bc
       -0.04538275 0.017615832 -0.041368864 -0.009479119
000020 49 23 00 3c 9a 46 11 bd fc 99 be 3c a5 db 1a bd
       0.007820913 -0.03546772 0.023266785 -0.037807126
000030 32 69 ae bd 47 a3 29 bb 8d 4c 4c bd b2 92 01 3d
       -0.08516158 -0.0025884674 -0.049877692 0.03163404
000040 0c b5 60 3b 54 ad 31 bd 0f 52 ad bd 50 89 70 bd
       0.00342876 -0.04337819 -0.08462917 -0.0587247
000050 4e c4 cc bc b4 7b cd 3c 96 54 17 bd 67 26 a4 3c
       -0.02499595 0.0250834 -0.0369459 0.020037843
000060 da f5 a9 bd a4 5f 2b bd 9a c9 92 bd b5 b8 47 3c
       -0.082988456 -0.041839257 -0.07167359 0.012190034
000070 48 49 a7 bd 02 a8 98 bd e8 40 dc ba af 95 ca bc
       -0.08168274 -0.0745392 -0.0016804012 -0.024729578
000080 d0 02 10 3d 57 43 14 bd e5 07 b9 bb 4b a4 7a 3b
       0.035158932 -0.036197033 -0.005646693 0.00382449
000090 6b 88 1f bd a3 79 54 bb 70 56 22 bd 73 20 be bd
       -0.038948458 -0.0032421134 -0.039633214 -0.09283533
0000a0 7f 67 12 3d e0 7f d8 bd dc 82 ca bb 9d ac 42 3c
       0.035743233 -0.10571265 -0.0061801504 0.0118819745
0000b0 fb 86 8f bd fd 81 b6 bd 34 af b8 bc d5 f5 9c 3c
       -0.07008167 -0.08911512 -0.02254448 0.01916019
0000c0 7a 35 60 bd 23 a5 93 bb e4 67 7f bd 4a c9 bc 3c
       -0.0547385 -0.00450577 -0.062354937 0.0230452
0000d0 46 b7 ac 3c a0 f0 b3 bd 24 e4 89 bd f4 9a c3 bd
       0.021083485 -0.0878613 -0.067329675 -0.09551039
0000e0 82 8c 9a bd ed 17 fd bc b6 b2 b7 bd a0 ae c4 bd
       -0.07546331 -0.030895198 -0.08969633 -0.096036196
0000f0 df 26 07 bd aa 56 cb bd e9 0d 37 bd d9 42 cb bd
       -0.032996055 -0.09928639 -0.044691 -0.099248596
000100 76 33 05 3d 72 f9 82 bc 36 87 81 bd 4d 3f a0 3b
       0.03251978 -0.015988085 -0.063246176 0.0048903585
000110 69 c5 00 bd 5e 8f 93 ba 0c 2e ca bc 78 c5 8f bc
       -0.031438265 -0.0011257937 -0.02468016 -0.017550215
000120 e8 37 44 bd 4d 56 42 bc 71 bd 92 bd c0 2f 0b bd
       -0.04790488 -0.011861396 -0.07165039 -0.033981085
000130 ad c8 eb ba e3 3e d8 3c a6 d1 0e bd 70 ff ad bd
       -0.0017988883 0.026397174 -0.034867905 -0.084959865
000140 b3 c0 7a bc 41 7c 04 bd 06 fc 65 bd fb 43 bf bd
       -0.015304732 -0.03234506 -0.05614855 -0.09339138
000150 5d bd 12 3d ff e5 7f bc 09 dd a9 3c fe 31 a3 bd
       0.035825122 -0.0156188 0.02073528 -0.0796852
000160 61 dc 85 bd 5e 12 6c bd 39 e1 1f bc 05 a4 88 bd
       -0.065361746 -0.057634704 -0.009758287 -0.06671909
000170 9f 5b 34 bd 78 49 16 bd d8 c1 d5 bc 73 a7 1d bd
       -0.04403269 -0.03669116 -0.026093408 -0.03848977
000180 dc cb 47 bd df 01 1f bd 87 1a b9 bb 4e b4 65 bd
       -0.0487784 -0.038820144 -0.0056489143 -0.056080155
000190 41 34 8b bd 70 2c 8c bd 35 10 fb bc de 69 81 3c
       -0.06797076 -0.06844413 -0.030647377 0.015797552
0001a0 d9 ea 75 3a e9 dd ea bc 6e 77 82 3b b7 9d a8 bd
       0.00093810033 -0.028670268 0.0039815223 -0.08233207
0001b0 ae 3e 9b bc 93 76 68 bd dd e5 57 bd 46 7c b9 bd
       -0.018950786 -0.056753706 -0.05270945 -0.090569064
0001c0 7b 6f 43 bd 43 24 bd bd 11 ba b3 bd 58 74 97 bc
       -0.047713738 -0.09235432 -0.08775724 -0.018488094
0001d0 d5 e3 98 bb fc b5 a1 bd 31 7b 52 bd 66 99 8b bd
       -0.0046658316 -0.07896039 -0.051387016 -0.06816368
0001e0 cb fd 90 bd 84 f2 3d 3c 44 70 90 bd f0 66 3c 3a
       -0.07079657 0.011593465 -0.07052663 0.000718697
0001f0 9b bc 48 bb a5 c1 3b bd dc 35 b1 bb ea da d0 bc
       -0.0030629996 -0.04583897 -0.005408032 -0.025495011
000200 a6 d8 a6 3c 87 d5 04 3d 58 7a a9 3a 70 bf 0b 3c
       0.020366978 0.032430198 0.0012930138 0.008529529
000210 e4 7f 49 bd a8 31 85 bd e5 ce ab bd 0e 22 a4 bc
       -0.04919423 -0.06503612 -0.083890714 -0.02003577
000220 91 61 28 bd 01 9c 8c bd 40 82 67 bc 0e 82 0c bd
       -0.04110867 -0.06865693 -0.014130175 -0.034303717
000230 73 51 90 bd 18 6e 98 bd 76 fc d0 3c a4 25 dd bc
       -0.07046785 -0.07442874 0.025511008 -0.026995488
000240 6c 84 83 3c 51 72 a7 bd 00 71 ea 3b b8 61 31 bd
       0.016054355 -0.08176101 0.007154584 -0.043306082
000250 38 17 a9 bd 7f 20 8e bd 2e 41 cc 3c d9 bf c0 bd
       -0.08256382 -0.06939792 0.024933424 -0.09411592
000260 7d 89 87 bd 65 e3 2a bd 0f ff bc bd e0 b2 10 3b
       -0.06618021 -0.041720767 -0.09228336 0.0022079274
000270 48 bc ca 3c 34 01 61 bd f6 3d 1a bd c8 4f 94 bd
       0.024747983 -0.054932788 -0.037656747 -0.072417796
000280 0d ba 9b bd ec 08 30 bd b3 4a d3 3b bd ae f1 bc
       -0.07603846 -0.04297726 0.006448114 -0.029502267
000290 42 53 f7 bc 6d 84 a2 bd 8e b3 81 bd 23 6a 90 bd
       -0.030191068 -0.079354145 -0.063330755 -0.07051494
0002a0 b6 5c 40 bc a1 9a 36 bc e4 13 a8 bd ba cf c4 ba
       -0.011740854 -0.011145265 -0.08206919 -0.0015015521
0002b0 51 2d d6 bc b7 7e bb bd 45 38 86 bd 66 2f 5f bd
       -0.026144655 -0.09155028 -0.06553701 -0.054488562
0002c0 d4 7c ad bd 88 3b c0 bd bb c0 e0 3c bc 01 76 3b
       -0.08471075 -0.09386355 0.027435651 0.0037537655
0002d0 7a 25 8d bd 74 04 d3 3b 98 c8 a0 3c cf 91 9c bd
       -0.06891914 0.00643974 0.0196269 -0.07644998
0002e0 4c 75 c0 3b 89 f3 7d bd c2 4e 02 bd f7 f0 82 bc
       0.005873358 -0.06199983 -0.03181339 -0.015984042
0002f0 bc dd 22 3c f2 cc 1f 3d bf 43 13 3c 73 32 8a bc
       0.009940561 0.03901381 0.00898832 -0.01686976
000300 37 41 42 bd bd 79 a3 bc db 20 89 bd f4 93 b8 3b
       -0.047425475 -0.01995551 -0.0669572 0.0056328718
000310 bb cb bb 3c 50 33 02 bd 1c 7e b0 bc 1c a3 6d bc
       0.022924295 -0.031787217 -0.021544509 -0.01450422
000320 46 3f 9b bb 9d 35 b6 bd 64 c1 8d 3c 30 d6 88 bb
       -0.0047377674 -0.08896945 0.01730413 -0.0041759238
000330 eb 6c 6a 3b 52 44 a2 bd dc 6c c7 bd b3 2b 6c bd
       0.0035770487 -0.07923187 -0.0973756 -0.057658862
000340 c0 0e 24 bd db 36 70 3d 67 72 5d bd 35 b4 20 3c
       -0.04005313 0.058646064 -0.05406418 0.00980859
000350 31 dc c4 bd c9 95 be bc 71 2d 51 bd b6 2c 22 bd
       -0.09612311 -0.023264783 -0.051068727 -0.03959342
000360 78 83 ac bc c4 7c 18 bd 53 76 a0 bd 2d c3 26 bd
       -0.021058783 -0.03722836 -0.078350686 -0.040713478
000370 49 c7 01 bb cd f0 55 3b c0 19 88 bd 1f 9f 7a bd
       -0.001980262 0.003264475 -0.066455364 -0.061186906
000380 60 c7 d0 3b 25 57 53 bd 3b c2 15 bd 3c 07 01 3c
       0.0063714236 -0.05159678 -0.036562186 0.00787526
000390 c0 dc 05 3d 6a 74 e6 bc 1b 37 e5 3c 61 33 47 3c
       0.032681227 -0.028131682 0.027980378 0.012158246
0003a0 12 76 68 bd e3 cb aa bd f0 47 ac bd 08 0f 43 bd
       -0.056753226 -0.083396696 -0.084121585 -0.047621757
0003b0 68 73 9e bd 8f 91 12 bd f8 4f 2b bd 7e 17 aa bd
       -0.07736856 -0.035783347 -0.04182431 -0.08305262
0003c0 88 65 a1 3c 89 7a b3 bd f8 16 a2 bd 56 b8 99 bc
       0.019701734 -0.08763606 -0.07914537 -0.018764656
0003d0 7b 89 a7 bd 49 4a c9 3c 3e 6d a2 bd 69 84 37 3c
       -0.08180519 0.024571555 -0.079309925 0.011201003
0003e0 db a6 b2 bd 0c cf ac bd 71 8e 9c bd be 05 84 3b
       -0.087232314 -0.084379286 -0.07644356 0.004029005
0003f0 96 33 14 bd d5 93 b5 bc 88 81 cc bb f0 dc 03 3d
       -0.03618201 -0.022165218 -0.0062410273 0.032193124

dense1.bias f4 [256]
000000 ae ec a6 bd f0 f3 b6 bd af 5e 9e bd d9 66 8a 3d
       -0.08150612 -0.08933246 -0.07732903 0.06757898
000010 83 03 cd 3d c1 03 1f bd 03 01 96 3d eb 77 b3 3d
       0.100104354 -0.03882194 0.07324412 0.08763107
000020 61 b9 af 3d 47 48 a2 bd 09 1f e0 bd 60 93 c2 bd
       0.0858028 -0.07923942 -0.109434195 -0.09500766
000030 72 78 ad 3d b6 4d 9a 3d 0d 10 f4 bd d9 4b ad 3d
       0.08470239 0.075343534 -0.11917124 0.084617324
000040 b6 d9 d0 bd f8 9c 96 bd 94 de c5 bd 00 3f 8f bd
       -0.10197775 -0.07354158 -0.09661594 -0.06994438
000050 7d 6e c6 3d 37 bc 9a 3d 15 d1 ac 3d a4 c9 99 bd
       0.09689043 0.075554304 0.08438317 -0.07509163
000060 9a 7c a4 3d d3 89 b5 3d ef 16 cf bd 4d 77 ef bd
       0.08031578 0.088641785 -0.10111796 -0.11692677
000070 a6 37 9f bd fd 96 c6 3d 75 ab e2 bd 85 d4 cc 3d
       -0.07774286 0.096967675 -0.11067859 0.100014724
000080 37 fc dc 3d 5d 0b db bd b1 f3 3f bd 6e 43 82 bd
       0.10790294 -0.10695527 -0.04686326 -0.063605174
000090 bc dc f6 3d af 30 bc bd e6 ea e7 3d f7 3e dc bd
       0.120538205 -0.09188973 0.113241 -0.10754197
0000a0 3c 2e aa 3d fd 3e e1 3d 02 1b 72 3d 4a 66 a2 bd
       0.083096 0.10998342 0.059107788 -0.07929666
0000b0 44 5a 7f bd dd 35 b3 3d c6 3a a8 bd e1 76 d6 bd
       -0.062341943 0.08750508 -0.08214335 -0.10471893
0000c0 bb 59 b0 3d dd f4 84 bd ea 55 c3 3d 2e 57 72 bd
       0.08610865 -0.064920165 0.09537871 -0.059165172
0000d0 01 1e e9 bd 88 b7 bc 3d cf 4d a8 3d a0 91 a7 bd
       -0.11382676 0.09214693 0.08217966 -0.08182073
0000e0 c1 2e b7 3d c2 c1 b8 3d 5e fc 99 bd 7e df bd bd
       0.089444645 0.09021331 -0.07518838 -0.092711434
0000f0 e2 21 97 3d 91 e0 a8 bd 57 51 eb 3d df d1 c1 3d
       0.073795095 -0.08245958 0.11490124 0.09463858
000100 90 32 df bd 86 14 6f 3d 08 e7 93 3d b4 04 d0 bd
       -0.10898316 0.058369182 0.072218 -0.10157147
000110 12 d7 e3 3d 69 0a 93 bd 4d 7e af 3d 41 c6 da 3d
       0.11125006 -0.0717972 0.08569012 0.10682345
000120 e3 a2 92 3d 32 0c ea 3d de 25 ea 3d 88 14 ae bd
       0.071599744 0.11428107 0.11433004 -0.0850001
000130 05 4d dd bd 79 48 ec 3d f6 52 c6 3d 98 ce c9 bd
       -0.10805706 0.115372606 0.09683792 -0.09853858
000140 6f 17 8b 3d 8b 6d b4 3d 8e de de bd 6e 95 9e bd
       0.06791579 0.08809956 -0.10882293 -0.07743345
000150 e4 2f ba 3d 67 d7 d0 bd 87 4f cb 3d 92 4f 8b 3d
       0.09091166 -0.10197335 0.09927278 0.06802286
000160 ae b9 fb bd af 1f e7 3d 70 f7 8a bd cc 06 bc 3d
       -0.12291275 0.1128534 -0.06785476 0.09180984
000170 bf 66 ca 3c 63 ac a5 3d cb c2 ab bd e9 62 ad bd
       0.024707196 0.08089521 -0.08386763 -0.08466131
000180 28 8a a7 bd 71 67 8e bd f9 52 b2 bd 99 36 92 bd
       -0.08180648 -0.06953324 -0.08707232 -0.0713932
000190 21 d5 db bd 39 d9 be bd 39 bc f8 3d 86 54 f6 bd
       -0.107340105 -0.09318776 0.121452756 -0.1202784
0001a0 4c 5b b2 bd 8e cf ac bd 60 f0 d6 3d e3 c8 da 3d
       -0.0870882 -0.084380254 0.10495067 0.10682847
0001b0 32 83 6e 3d a5 33 9d bd 17 a6 a6 3d 04 5b 00 3e
       0.058230586 -0.07675866 0.08137148 0.1253472
0001c0 0e 42 d7 3d 7d 56 8d 3d 2f e8 ae 3d 6b 7a e4 bd
       0.10510646 0.06901262 0.08540379 -0.11156162
0001d0 29 98 aa 3d b0 ba d8 3d e3 66 e2 bd 29 58 91 3d
       0.083298035 0.10582483 -0.1105478 0.07096893
0001e0 cd 8e c4 bd 18 f3 05 3e d8 24 87 3d 00 0c ae 3d
       -0.095975496 0.13081014 0.06598824 0.084983826
0001f0 9d c0 c3 bd 21 06 94 bd f1 24 a5 3d 96 5d e7 3d
       -0.095582224 -0.072277315 0.08063687 0.11297147
000200 91 97 ad bd 84 43 c3 3d 5c 05 bf 3d 7d 72 b5 3d
       -0.084761746 0.09534362 0.09327194 0.088597275
000210 c5 69 00 be e9 0d b2 bd 99 1a bb 3d cf 9c bf bd
       -0.12540348 -0.086940594 0.091359325 -0.09356081
000220 58 40 c7 3d 58 72 fa bd 42 94 a9 bd a2 29 dd 3d
       0.097290695 -0.122288406 -0.08280231 0.107989565
000230 fe 6b d7 3d bb c7 dd 3d db 4b cf bd aa ea 83 3d
       0.10518645 0.10829111 -0.1012189 0.06441243
000240 01 1a 82 3d a3 c6 a5 3d a3 c8 c0 bd 66 3f 99 bd
       0.06352616 0.080945276 -0.094132684 -0.074827954
000250 19 ac cc 3d 68 ef da 3d 27 23 fa 3d 43 1a 83 bd
       0.099937625 0.10690194 0.12213736 -0.064014934
000260 40 9c ac 3d f5 58 c9 bd 14 e4 b9 bd e4 d9 90 bd
       0.0842824 -0.0983142 -0.090767056 -0.07072809
000270 f9 97 9a bd c1 a6 e9 bd 8b eb ca bd ba 2e 8d 3d
       -0.07548518 -0.11408759 -0.099082075 0.06893678
000280 90 11 ce 3d cc 5a e8 3d 42 81 5b 3c ee cb 06 be
       0.100619435 0.11345443 0.013397517 -0.1316373
000290 ce f7 3a bc a1 b3 88 3d 24 6a cf bd 3c 35 94 bd
       -0.01141162 0.066748865 -0.101276666 -0.07236716
0002a0 c8 6f d1 3d 2c f8 b7 3d 69 87 96 3d e2 d5 aa bd
       0.10226399 0.08982882 0.07350046 -0.08341576
0002b0 e1 d9 c6 3d b2 2d 10 be 01 98 dd 3d d9 60 9f 3d
       0.09709526 -0.14079931 0.10820008 0.07782144
0002c0 ba 81 d0 3d ca 41 a9 bd ed 17 bf 3d ec 07 bc bd
       0.101809934 -0.082645014 0.09330735 -0.091811985
0002d0 71 cd ea bd 83 54 d6 bd 59 79 5e 3d 4f 10 d7 bd
       -0.11464966 -0.10465338 0.054314945 -0.105011575
0002e0 8c 51 98 3d aa 7f e4 bd ed ee d5 bd 8e cd 05 3e
       0.07437429 -0.111571625 -0.10445962 0.13066694
0002f0 40 c7 b4 3d 39 15 d1 bd 05 86 cd 3d 9a f3 b3 bd
       0.088270664 -0.10209126 0.10035328 -0.08786698
000300 15 40 a1 3d 31 f4 d9 bd a7 a8 b9 bd d1 00 bf bd
       0.07873551 -0.10642279 -0.09065371 -0.093263276
000310 86 cd 91 3d e1 bc e3 3d fe 3f 92 bd db 25 8e bd
       0.071192786 0.1112001 -0.07141112 -0.06940814
000320 89 bd d3 3d 07 81 cc bd 6d 62 03 3e ce 57 eb bd
       0.10338885 -0.099855475 0.12830515 -0.11491357
000330 15 0f 99 3d 70 14 d4 bd 06 0b 91 3d 58 03 a6 bd
       0.0747358 -0.10355461 0.07082181 -0.081061065
000340 fb bc a0 bd c4 35 fe bd 20 fa 9e bd 7b 4e ec 3d
       -0.07848545 -0.12412599 -0.07762551 0.115384065
000350 7e bb e8 3d f3 2e de bd 18 1a e5 3d e9 f3 dc bd
       0.11363886 -0.108487986 0.111866176 -0.1078871
000360 75 a6 99 3d 09 11 ab bd dc d5 76 3d 27 98 dc 3d
       0.07502452 -0.083528586 0.060262546 0.10771208
000370 18 4d d9 3d 04 f2 aa bd 7b 46 d5 bd 4c 89 c2 3d
       0.106104076 -0.08346942 -0.10413834 0.094988436
000380 fa a7 c2 bd ec 5b 00 3e d7 7b b4 3d 5e e2 ad 3d
       -0.09504695 0.12535065 0.08812683 0.08490442
000390 05 3a b1 bd 2f 41 b7 bd b1 05 c1 3d 5a 7d cb bd
       -0.086536445 -0.0894798 0.09424914 -0.09936018
0003a0 e0 84 b7 3d c0 1e d8 3d 93 8a ad 3d df 95 ae bd
       0.08960891 0.1055274 0.084736966 -0.085246794
0003b0 00 f3 c0 3d c5 e1 8f bd fa 2c 48 bd 71 ca d5 bc
       0.094213486 -0.07025484 -0.048871018 -0.026097508
0003c0 cb 10 bf bd 13 12 98 bd 3b a5 e7 bd ba 84 d7 3d
       -0.09329375 -0.074253224 -0.11310812 0.105233625
0003d0 75 c6 66 3d 5b 22 a1 bd 14 6d c5 3d 5f be e7 3d
       0.056341607 -0.07867881 0.096399456 0.11315607
0003e0 36 d0 d2 3d a9 5a 08 3e aa e9 a6 3c 5b 09 bc bd
       0.10293619 0.13315834 0.020375092 -0.09181472
0003f0 a9 76 aa bd 93 33 d6 3d 82 38 df 3d 42 eb cf 3d
       -0.08323414 0.10459056 0.1089945 0.10152294

dense2.weight f4 [256, 256]
000000 72 8d c9 3a 78 cf 8f bc 6f 37 a9 bc af ff ce 3d
       0.0015377237 -0.017554983 -0.020656316 0.101073615
000010 ea c5 40 3c 45 74 0f bd 2f 84 92 bc 59 17 b6 3d
       0.011765936 -0.035022993 -0.017885296 0.08891172
000020 65 b6 e2 3c 9d c5 4a bd 5a 81 61 3c b1 2c c3 bd
       0.027674863 -0.049504865 0.01376375 -0.095300086
000030 6b 27 0a 3d 6e 2a 4a 3d f9 8d 22 bc 80 2a 52 3c
       0.033729 0.04935687 -0.009921544 0.012827516
000040 6c ae cf 3b 4e 60 12 bd 07 1f fa bc 18 98 cf bd
       0.0063379314 -0.035736375 -0.030532373 -0.101364315
000050 0f 48 5d 3c 3e 54 2a 3d 73 01 5c 3d 9a 32 34 3c
       0.01350595 0.041584246 0.05371232 0.0109983925
000060 c3 ca 4b 3d e7 37 8c 3d c7 f9 3e 3c 49 42 ef bc
       0.049753916 0.068466 0.011656231 -0.029206412
000070 8d f1 b8 bd f0 b2 2e 3d 83 d6 2e bd 95 f4 8e 3b
       -0.09030447 0.042651117 -0.042685043 0.0043626525
000080 46 7e 12 3d d6 a4 8f 3c 38 ca 15 bd d0 49 1d bd
       0.035764955 0.017534655 -0.036569804 -0.03840047
000090 fa 59 6a 3d a1 73 db bc 89 5b 62 3b b5 9a c3 3c
       0.057214715 -0.026788535 0.0034539422 0.023877481
0000a0 d4 a2 95 3d af 33 78 3b 8f 90 9e 3d 61 76 c2 bd
       0.073064476 0.0037872603 0.07742416 -0.09495235
0000b0 3a 8d 39 bc fb 5d b5 3d a5 eb 0c bd 97 4f 51 bd
       -0.011325175 0.08855816 -0.034404416 -0.051101293
0000c0 f2 16 86 3d 31 2c 00 bc 72 c9 3d 3d 93 bf 73 bd
       0.06547345 -0.007823036 0.04633469 -0.05950887
0000d0 ae e3 62 bd b0 b0 7a 3d 8e 83 96 3c e7 18 c5 3c
       -0.055392914 0.06120366 0.018373277 0.024059726
0000e0 24 7f a0 bc ea 9f 91 3d 9f 32 19 bd 09 c4 bd bd
       -0.019591875 0.07110579 -0.03740179 -0.09265906
0000f0 74 12 59 3d 63 45 61 bd d8 cf be 3b 99 6e 84 3d
       0.052996114 -0.054997813 0.0058231167 0.06466407
000100 f3 69 f5 bc a4 81 a3 3c c6 9f 65 3d d9 6f 6c 3c
       -0.029957747 0.019959278 0.056060575 0.014430963
000110 93 2a 83 3c db ec 1f bd fb e4 6b 3d 06 5b 04 bc
       0.016011512 -0.039044242 0.05759142 -0.008078342
000120 97 df a3 3d 2a 21 b6 3c 37 3d e6 3c 32 29 db bd
       0.08001631 0.02223261 0.028105361 -0.10701217
000130 d3 14 ee bb 48 16 c1 3d 6d 39 28 3d 3f d9 e6 bc
       -0.007265666 0.09428078 0.04107039 -0.028179763
000140 10 82 87 3d b8 ba 2f bc 2b 8d b1 bd 6c fe c4 bd
       0.06616604 -0.01072567 -0.08669504 -0.096188396
000150 6b 77 45 3d 4d 00 a9 bd 76 66 db 3c a0 5f 27 3d
       0.04820959 -0.082520105 0.026782256 0.04086268
000160 41 09 0d bd 67 ec 52 bb c1 67 92 3c 8f 67 b6 3b
       -0.034432653 -0.0032184364 0.01787174 0.0055665444
000170 2a 8a d0 3b 13 97 ef bb 9b 7e 3c bd ff 8b 45 bc
       0.0063641267 -0.0073117106 -0.046019178 -0.012057303
000180 a1 fb 92 bc 9e 26 7f bc d8 83 db bc 21 d7 8f bd
       -0.017942252 -0.015573172 -0.026796266 -0.070234545
000190 d0 b7 b7 bc a2 99 0c bd ab cc e2 b8 7f 5e b0 bd
       -0.022426516 -0.034326203 -0.00010814642 -0.08611774
0001a0 78 58 b9 bc 93 74 07 bd 03 4b 09 3d 5a 25 b6 bb
       -0.022625193 -0.03307016 0.033518802 -0.005558652
0001b0 07 04 9f 3d ac 97 5e bd eb 81 f2 3c 02 fb 1e 3d
       0.0776444 -0.054343864 0.029602965 0.0388136
0001c0 8b 3b bc 3d e3 d2 26 3d 25 96 ab 3d 02 08 af 3c
       0.091910444 0.04072846 0.08378247 0.021366123
0001d0 17 f9 a3 3d 05 c5 8b 3d bf 3c 98 bd 1e cc 4c 3d
       0.080064945 0.06824688 -0.074334614 0.04999935
0001e0 0f 72 b8 3c 73 b2 55 3d 79 4a b5 3c 53 ec c2 3d
       0.022515325 0.052172136 0.022130238 0.095177315
0001f0 9e 06 39 bd ee 31 22 bd a6 86 83 bc be 86 88 bc
       -0.045172326 -0.039598398 -0.016055416 -0.016665813
000200 f7 56 90 bd 39 d0 6a 3c b4 dc a4 3d 71 c9 84 3d
       -0.07047837 0.014331871 0.08049908 0.064837344
000210 71 02 de bb 6f 25 f7 bc 4b 5d 50 bb b1 ef 58 bd
       -0.0067751934 -0.030169217 -0.0031793888 -0.052962963
000220 af d3 cc 3b 7f 90 d9 bc 42 d6 3b 3c d7 72 03 3e
       0.0062508206 -0.026558159 0.011464657 0.12836777
000230 28 8b c3 3d 80 0d c4 3d cc 11 fb bd f6 0c 6b 3d
       0.09548026 0.095728874 -0.12259254 0.057385407
000240 3e 77 be 3d 32 fc b2 3c 69 ac 9a bc f4 06 86 bb
       0.093000874 0.021848772 -0.01888104 -0.0040901843
000250 1a 41 8d 3c fe 5b c2 3c d4 c0 3a 3b 6b 39 ae bd
       0.017242957 0.023725506 0.0028496282 -0.08507045
000260 e5 b1 81 3d 6b 69 a6 bd 16 70 55 bd 90 65 f3 bc
       0.06332759 -0.08125576 -0.052108847 -0.029711515
000270 d9 83 97 bd 30 2d ab bd d4 d2 53 bc 1c 48 fc 3c
       -0.07398195 -0.08358228 -0.012928683 0.030796103
000280 1d 37 96 3d 7f 1c 8a bc b4 c8 27 bd f6 2e 99 bb
       0.07334731 -0.016859291 -0.04096289 -0.0046747876
000290 f5 24 56 3d 6f 2a 91 3d e1 e2 b0 3b 97 24 44 bd
       0.05228134 0.07088172 0.00539814 -0.047886457
0002a0 be b1 c7 3d 39 5d cc 3c 81 80 48 3d 1e 83 6d bd
       0.097506985 0.024946796 0.048950676 -0.05798637
0002b0 46 be ba 3d 86 02 88 bd 1e 63 93 bc d0 91 84 3d
       0.09118323 -0.06641106 -0.017991599 0.06473124
0002c0 0e d3 79 3d c4 48 67 bd 0f 37 ac 3c 11 05 14 bd
       0.060992293 -0.05646588 0.021022348 -0.036137644
0002d0 4f 1f 00 bd 32 35 96 bd 04 08 1b bc 53 c7 31 bd
       -0.03127986 -0.07334365 -0.00946236 -0.04340298
0002e0 ec 1c bd bc 64 23 b7 bd 0c 2a 5f bd 5e 87 df 3b
       -0.02308508 -0.08942297 -0.05448346 0.006821557
0002f0 7d b4 0f 3d f5 fd 12 bd 89 02 9c ba 44 d5 58 3c
       0.035084236 -0.035886724 -0.0011902611 0.01323444
000300 84 b4 24 b9 60 13 ba bd 0d 47 3c bd dd 29 ef bb
       -0.00015707506 -0.09085727 -0.045966197 -0.0072986917
000310 41 fe 3a bc 8e af e5 3c 64 99 be bd 53 d2 df bd
       -0.011413158 0.028037813 -0.09306601 -0.10928788
000320 7a 9c 49 3c cb fd e8 bc cc a9 86 3a 1a 71 a9 bd
       0.012305373 -0.02844133 0.0010273992 -0.082735255
000330 b4 a6 b5 3c 8b 65 62 bc 80 16 8e 3d 6a 35 e0 bc
       0.022174217 -0.013818155 0.06937885 -0.02736922
000340 c2 9c 6f 3b ea 37 ac 3c 5e 7f 4a bd ab 49 68 3c
       0.003656194 0.021022756 -0.049437873 0.01417772
000350 99 c0 ae 3c d9 c2 94 bd 48 15 cb 3c c3 2c 9c bc
       0.021332072 -0.07263727 0.024790421 -0.019064313
000360 37 f4 ac 3c 27 e9 c6 bb 92 7e af bc ba fc 80 3d
       0.021112544 -0.0060702744 -0.021422658 0.06298204
000370 a1 6a 2d 3d 23 e3 5f bd 2f ee 9f bd 68 49 c0 bc
       0.042338017 -0.054659974 -0.07809102 -0.023472503
000380 c2 c6 bc bb 20 99 a7 3d d5 1e a2 3c 68 25 b7 3d
       -0.0057609985 0.08183503 0.019790092 0.089426816
000390 2d a4 27 bc 97 bd 87 bd eb 82 90 3d b1 6b 52 bc
       -0.010232014 -0.06627958 0.070562206 -0.012843058
0003a0 96 c2 19 3d 48 f7 d1 3c a0 09 c1 3d f9 72 3c 3c
       0.037539087 0.025630608 0.09425664 0.011502021
0003b0 60 6f 6c 3d 60 f6 3a bd e2 4a c3 bc ad e7 5a 3d
       0.057723403 -0.045645118 -0.023839418 0.0534436
0003c0 75 13 f2 bc 6a ae be bd 43 4f bb bc 8c 11 49 3d
       -0.029550293 -0.093106106 -0.022864943 0.049089
0003d0 46 69 4b 3d 01 0e 90 bb c3 55 8f bb f0 7a c5 bb
       0.049660943 -0.0043962006 -0.0043742373 -0.006026618
0003e0 80 15 82 3d ac ff 4e bc cb 55 63 bd 9f aa d8 3c
       0.06351757 -0.012634199 -0.05550174 0.026448546
0003f0 44 f0 88 ba 6b 42 b9 3d cc bf 88 ba 6b 19 70 bb
       -0.0010447581 0.09045871 -0.0010433136 -0.0036636244

dense2.bias f4 [256]
000000 b7 b7 95 bc 0c ed 27 3d 08 03 97 3d dc 17 39 bd
       -0.018276079 0.04099755 0.07373625 -0.04518877
000010 aa 35 12 bd 16 65 2b 3c dd 31 34 3d 6d 9c a9 bd
       -0.03569571 0.0104611125 0.043992866 -0.08281789
000020 d6 ea 4f bd 81 a0 4d bd bf 41 21 3d 3f 84 8e 3d
       -0.050761066 -0.050201897 0.03936934 0.06958818
000030 52 ee 7c bd db 48 19 3d 58 4f 48 3d 4e 66 fc 3c
       -0.061750717 0.037422996 0.048903793 0.030810501
000040 e1 3d ae 3d 06 76 40 3d c2 d4 a1 bd 8f ae a8 bd
       0.08507896 0.046987556 -0.079019085 -0.082364194
000050 d8 07 0a bd 1f e3 58 bd ee 7c 77 bc d2 92 7a 3d
       -0.033698887 -0.052950975 -0.015105469 0.061175175
000060 e8 75 ba 3d 47 0d 56 bd 8f e5 12 bc 18 36 07 bd
       0.0910452 -0.052258756 -0.008965864 -0.033010572
000070 a2 3b 19 bc c3 58 a7 3d 9b eb bf 3d dc 2f 13 bc
       -0.0093525965 0.08171227 0.0937111 -0.0089835785
000080 1c e5 b9 3d 75 83 99 3d a0 9c b2 3d fb c6 31 bd
       0.09076902 0.074957766 0.0872128 -0.043402653
000090 8f a6 80 3d 90 fe 24 bd d1 41 98 bb ad 40 8b 3b
       0.062817685 -0.040281832 -0.004646518 0.0042496533
0000a0 79 46 b8 3d 2b 1e ba 3d 46 e9 81 3b 40 c4 24 bd
       0.089978166 0.09087785 0.003964576 -0.04022622
0000b0 5a af 8e bb fc 8c db bc 64 e7 b6 bd 4f cf 2f 3b
       -0.0043543996 -0.026800625 -0.08930853 0.0026826446
0000c0 4b ac 00 3c 19 16 94 bc da 58 97 bd e0 c5 cf 3c
       0.007853578 -0.018076943 -0.07389994 0.025362909
0000d0 74 3e c2 bd 14 3f b4 3c d3 0c 7a 3c 93 c5 99 bd
       -0.09484568 0.022002734 0.015261847 -0.075083874
0000e0 b4 64 d0 3c e5 67 21 3d 02 b8 ba ba 6f 00 4b 3c
       0.025438644 0.039405722 -0.0014245512 0.01239024
0000f0 08 4c a3 bc 00 b5 92 3d b5 b4 b6 bc 21 92 98 3c
       -0.019933715 0.07163429 -0.022302965 0.018624367
000100 f8 fb e6 3c 0b 72 b2 3d 12 47 f2 3b 7b dc 33 3c
       0.02819632 0.08713158 0.007393726 0.01097786
000110 0b 50 bd 3d 1d 08 c3 3d 50 83 e6 bb 46 12 8b bc
       0.092437826 0.09523032 -0.0070346966 -0.016976487
000120 36 76 69 3c 8b 41 1c 3b 81 e1 ca 3c 8a c1 b1 3d
       0.014249375 0.0023842778 0.024765732 0.08679493
000130 e2 31 bd 3c ce ad 53 bd 2a 7d ad 3a b9 e2 ae bd
       0.023095075 -0.051679425 0.0013236154 -0.08539338
000140 51 55 d6 bc db 18 f3 bc eb 74 e4 3c 16 3c 0f bd
       -0.026163729 -0.029674938 0.027887782 -0.03496941
000150 1e 59 e7 3c 6a a3 05 bd 7a 46 bf 3d 57 d7 8a bd
       0.028240737 -0.032626547 0.09339614 -0.06779354
000160 77 96 ce 3d 84 dd ba bd 9c e7 bd bd 45 7e 5e 3d
       0.10087293 -0.09124282 -0.092726916 0.05431964
000170 50 c7 9e bd be a1 88 bd 39 b4 dd 3b ed cd 88 bd
       -0.077528596 -0.06671475 0.006765869 -0.06679902
000180 53 7f 9a 3c 63 c3 23 3d 39 3c d4 3c 3c 0a e8 bb
       0.018859541 0.039981257 0.025907623 -0.007081298
000190 19 db 41 bd 7b 09 b0 3d 4e ff df 3c cf 6b 78 3d
       -0.04732809 0.08595558 0.027343418 0.06064969
0001a0 bd 3e 57 bc 18 8e ae 3c e1 43 62 bd c7 16 a4 bd
       -0.013137517 0.02130799 -0.055240516 -0.08012157
0001b0 bd 8d a7 bc bb 9d ff bc d5 26 18 bd c0 e9 75 3b
       -0.020453328 -0.031203141 -0.037146408 0.003752336
0001c0 e7 ce 2f bd 06 44 96 bd 76 dc a9 3d b0 d9 c1 bd
       -0.042921927 -0.07337193 0.08294003 -0.09465349
0001d0 88 98 76 bd 29 41 e3 bc 60 2c a4 bd ea bc cc bc
       -0.06020406 -0.027741032 -0.08016276 -0.024992425
0001e0 c8 a9 b0 3d a6 af 21 3d 77 e9 44 bc 48 1d a2 bc
       0.08626133 0.039474152 -0.012018553 -0.019789353
0001f0 5f 92 3a 3d 76 ea 65 3d 84 02 95 3c a3 18 d2 bb
       0.045549747 0.056131802 0.018189676 -0.0064116283
000200 83 57 95 3b d3 1c 74 3d c1 a5 85 3c f8 1c 96 bc
       0.0045575514 0.0595978 0.01631439 -0.01832436
000210 a8 1c 9f bd c7 10 17 bd 35 9d 4e 3c 2e 09 58 3c
       -0.077691376 -0.036881234 0.012610723 0.013185782
000220 bd c3 ab bc a1 4f 84 bd 4c 04 72 bd 48 e9 6e bd
       -0.020967359 -0.064605005 -0.05908613 -0.058327943
000230 92 a9 8b 3d 2a 61 0d 3d ae eb 26 3d 99 ad 0c bd
       0.06819452 0.03451649 0.040752105 -0.034345243
000240 39 b0 30 3d 7c 6e 3d bc 18 aa 1b bd 03 a3 b0 3d
       0.04313681 -0.011561986 -0.03800401 0.08624842
000250 7b f3 d5 3d c1 6c f1 3c c4 a8 92 3d 0d e6 43 bd
       0.10446831 0.029470803 0.07161096 -0.047826815
000260 4a 98 f6 bc 3a 71 ac 3c a4 16 76 bd 34 62 48 bd
       -0.030101914 0.021050084 -0.060080186 -0.04892178
000270 b4 62 b6 3d e3 75 e9 3c 4f 55 67 bd 9a ed 65 bd
       0.08905545 0.028498596 -0.05647784 -0.056134798
000280 a9 6d 25 3c 90 71 ef bb 59 65 17 3c 78 e0 cc 3a
       0.010096946 -0.007307239 0.009240472 0.0015630862
000290 4e f2 02 3d c1 64 56 bd cf 21 c4 3c 20 1a 9a bd
       0.03196936 -0.05234218 0.023941902 -0.07524514
0002a0 86 3e 19 bd 8a 5b 98 bd 7e d9 3d bc fd cd de 3c
       -0.037413143 -0.07439335 -0.011587499 0.027197832
0002b0 ba fa 8e 3c 4b 1b 81 3b 58 b3 aa 3d 3c bc ad ba
       0.01745354 0.003940021 0.08334988 -0.0013254951
0002c0 47 ed 5c 3c f3 8d fd bb 85 71 e1 3c 49 2d c2 bd
       0.013484306 -0.007737869 0.02751995 -0.09481294
0002d0 83 26 89 bd 3c 1e 3c 3b 07 1e 8b bd c7 bf a1 3d
       -0.06696799 0.0028704545 -0.06792837 0.07897907
0002e0 eb 4f 25 bd 5c 80 26 bd d8 d5 7b 3c 15 2b 90 3d
       -0.04035942 -0.040649757 0.015370809 0.07039467
0002f0 60 ea ce 3c 97 10 45 3d 96 87 0e bd 5f b0 8b bb
       0.025258243 0.048111524 -0.034797274 -0.0042629684
000300 e5 c5 13 3d 4d c6 71 3d 56 f5 ba 3c 5f 76 6e 3d
       0.0360774 0.059027005 0.022822063 0.058218356
000310 a9 cc 72 3d 46 c2 b5 3c b1 4d 3c 3d b7 96 ae bd
       0.05927721 0.022187363 0.04597253 -0.0852484
000320 ee ab 67 bb 22 bf b4 3c de c9 63 bc ed 71 a6 bd
       -0.003535028 0.022063795 -0.013903109 -0.08127198
000330 d9 b4 23 3c c3 b2 9b 3d a9 72 93 3d 3f 97 4d 3d
       0.009991848 0.076024555 0.07199604 0.050193068
000340 78 15 a5 3d 8b 3c 87 bd f9 ed 1b 3d 77 1b c5 3b
       0.080607355 -0.066033445 0.038068745 0.006015237
000350 fd 39 15 3d 8f 03 e7 3c b6 69 93 3c 8b cd 60 3d
       0.036432255 0.028199939 0.017994743 0.05488352
000360 3f 8e 9a 3a 15 15 50 3c 81 11 a5 3b 81 72 74 3c
       0.001179166 0.012700339 0.005037487 0.014919878
000370 6f ac 6b bd e9 67 82 3d cd 3a 71 3d cc 29 61 3d
       -0.057537492 0.063674755 0.058893967 0.0549715
000380 30 dc a1 3d f1 0a 2a bd 21 15 be bc 5f df c8 3d
       0.079033256 -0.04151434 -0.023203434 0.0980823
000390 ec 67 2c 3c a3 ac ff bb 47 0e f0 3c ec 74 cb 3d
       0.010522824 -0.0078025623 0.029303683 0.099344105
0003a0 ff eb 64 3d e8 00 f8 bc 9d 95 d3 bc b5 a4 be 3d
       0.055889126 -0.03027387 -0.025828177 0.09308759
0003b0 ef 6f d7 3d d7 69 bf bc 94 85 40 3d 2b 8f 64 3c
       0.105193965 -0.023365898 0.04700239 0.0139501495
0003c0 7c 91 78 3d ae dd cd 3c 4b fb 46 3d c0 b0 af 3c
       0.06068562 0.02513012 0.048579495 0.021446586
0003d0 73 38 aa bb 7a d9 f6 3c 39 49 02 3d ce 2f b2 3d
       -0.0051947176 0.030132998 0.03180811 0.08700524
0003e0 94 1e fb 3b 6a 0b a7 3c 75 30 95 bc 11 8e 9a 3d
       0.0076635573 0.020391185 -0.018211583 0.07546628
0003f0 99 da f8 3c 5e f6 ce bd 04 2f 87 bc 01 84 0c bd
       0.030377673 -0.101055846 -0.016501911 -0.034305576

dense3.weight f4 [1, 256]
000000 ba 3a 0a be 9b 2b ec bd fd d6 00 be 7f 90 9e 3d
       -0.13498965 -0.115317546 -0.12582012 0.07742404
000010 04 00 cc 3d 59 94 e5 bd 8a 99 af bd 99 8b d3 3d
       0.099609405 -0.11209936 -0.08574207 0.103293605
000020 d8 dd 90 3d 68 60 96 3d 92 07 e3 bd 8b 53 d4 bd
       0.07073563 0.07342607 -0.11085428 -0.10367497
000030 e4 b6 9e 3d 5a 2e dc bd 53 85 fc bd f5 25 af 3d
       0.07749727 -0.10751028 -0.12330117 0.085521616
000040 a8 7a cb bd bf 5e d2 bd 70 8e 95 3d c8 29 f2 3d
       -0.09935504 -0.10271978 0.073025584 0.118243754
000050 a4 08 97 3d b9 2c a9 3d 83 50 cc bd c6 f2 ce bd
       0.07374695 0.08260483 -0.09976294 -0.10104899
000060 d1 da e5 bd 76 f1 c0 3d ef 49 ae 3d ca d5 e2 3d
       -0.112233765 0.09421055 0.085101955 0.11075933
000070 40 42 ed bd c8 82 b3 bd b8 76 ac bd 2f ff cb bd
       -0.11584902 -0.08765179 -0.08421081 -0.09960782
000080 98 61 b8 bd 32 07 ad bd 41 6c dd bd 92 7b c0 3d
       -0.090029895 -0.08448638 -0.108116634 0.09398569
000090 e7 63 a5 bd 42 48 c1 3d a2 c4 d2 bd 0e df bc 3d
       -0.080756955 0.0943761 -0.10291411 0.09222232
0000a0 2f 18 c4 bd d5 05 df bd 77 2a a8 bd 76 09 73 3d
       -0.09574925 -0.10889784 -0.082112245 0.059335195
0000b0 a2 37 bb 3d f8 20 cc 3d 28 79 9a 3d 78 c2 54 3d
       0.091414705 0.09967226 0.0754264 0.051943272
0000c0 50 6d 94 3d 4c 7f 78 bd d1 1e d7 3d 97 93 ac 3d
       0.07247412 -0.060668275 0.10503925 0.08426588
0000d0 24 e4 95 3d af 4d 2f 3d ef b9 ff bd 37 9c ad 3d
       0.07318905 0.042798694 -0.12486636 0.08477061
0000e0 56 42 c2 3d c0 4c 0b be 9f b9 cc bd ea 3c ef bd
       0.09485309 -0.13603497 -0.09996342 -0.1168154
0000f0 46 c0 ce 3d 95 55 e2 bd 26 ac 9c 3d 01 8c 93 3d
       0.10095267 -0.1105148 0.07650022 0.07204438
000100 ce a2 f8 bd 31 06 ac bd 20 58 c2 3d 1e 10 c8 bd
       -0.121404275 -0.083996184 0.09489465 -0.09768699
000110 91 94 fb bd 8e 4d b0 bd bd 68 c2 3d a8 d8 7d bd
       -0.12284196 -0.086085424 0.094926335 -0.061974198
000120 0e 4a b2 3d 34 88 b9 3d 51 e6 e3 bd bf 65 ea bd
       0.08705531 0.09059182 -0.11127914 -0.11445188
000130 29 29 f0 bd 3b b6 e9 3d 3f 5b c0 bd 60 bc 92 3d
       -0.11726601 0.11411711 -0.09392404 0.07164836
000140 7a f8 d6 3d cf 1f b9 3d 49 3c bb 3d 3a be d3 3d
       0.10496612 0.0903927 0.09142358 0.10339017
000150 8f 0b 82 3d 3e a2 cc 3d 58 4a cc bd 59 6c 8f 3d
       0.06349861 0.09991883 -0.099751174 0.070030876
000160 3c 05 a0 bd 50 ec aa 3d f8 99 bc 3d 15 77 dd bd
       -0.078134984 0.08345854 0.09209055 -0.10813729
000170 b5 9e c4 3d 10 04 92 3d 05 c1 e6 3d d8 46 92 3d
       0.096005835 0.07129681 0.11267284 0.071424186
000180 35 50 f1 bd 14 77 b6 bd a2 5d f3 bd bc 15 0d be
       -0.117828764 -0.08909431 -0.118830934 -0.13777822
000190 b9 5a 94 3d a6 24 ad bd ee a9 89 3d c8 c7 b6 bd
       0.072438665 -0.08454256 0.06721865 -0.08924824
0001a0 d0 97 e6 bd ee fc a7 3d f1 4b b7 3d b6 1c a8 3d
       -0.11259425 0.082025394 0.089500315 0.08208601
0001b0 dc c6 e2 3d c6 5e e1 3d de df b2 3d 7d 67 7c 3d
       0.11073086 0.11004405 0.087341055 0.06162213
0001c0 08 30 b1 3d 84 d7 ba 3d 26 ba 96 bd f3 0e 83 3d
       0.08651739 0.091231376 -0.07359724 0.06399336
0001d0 09 ce c4 3d 17 4e f5 3d fd 28 90 3d 37 65 b0 3d
       0.096096106 0.11977785 0.07039068 0.08613055
0001e0 47 0a e6 bd a5 d0 12 be 77 3c d6 bd 10 65 e4 3d
       -0.11232429 -0.14337404 -0.104607515 0.11152089
0001f0 ab 39 f2 bd 36 de d2 bd 03 86 d6 bd c6 59 c9 bd
       -0.118274055 -0.102962896 -0.104747795 -0.09831576
000200 31 ba e5 bd 8a d1 11 be 26 b7 b8 bd 39 92 cd bd
       -0.11217154 -0.14240089 -0.09019308 -0.100376554
000210 2c f7 a8 3d 12 ad aa 3d e0 16 c8 3d e9 f9 c7 bd
       0.08250269 0.08333792 0.09769988 -0.097644635
000220 8c 82 ce 3d b9 5b bd 3d d7 23 cd 3d b6 2b cb 3d
       0.100834936 0.0924601 0.100166015 0.099204466
000230 ba 0f bc bd 38 bb dc bd db 51 02 be 7d 7e 3c bd
       -0.09182687 -0.10777897 -0.12726538 -0.046019066
000240 a6 76 dc bd 5e 3b a4 3d c4 57 93 3d f9 5c da bd
       -0.10764818 0.08019136 0.07194474 -0.106622644
000250 53 d6 8d bd 4c e7 d3 bd ca c2 e5 bd 85 0b 8f 3d
       -0.06925645 -0.10346851 -0.11218794 0.06984619
000260 41 97 8b 3d f4 0d fa bd a5 6a d6 3d b2 45 ab 3d
       0.06815959 -0.122096926 0.104695596 0.08362903
000270 17 e4 df bd 08 cd 87 3d ca f3 e3 3d 77 ac 84 3d
       -0.109321766 0.066309035 0.111304834 0.064782076
000280 18 15 de 3d 92 1c b8 3d cc 81 99 bd 8c a9 9a 3d
       0.10843867 0.08989824 -0.0749546 0.0755187
000290 b4 a3 12 be 05 bf 9c 3d 20 be 3c 3d 67 ce ae 3d
       -0.1432026 0.076536216 0.046079755 0.08535462
0002a0 2e 3e 89 3d 5f e0 c2 3d 85 7d d8 bd c3 fd 23 3d
       0.06701313 0.09515452 -0.10570816 0.040036928
0002b0 63 4a 8c 3d a0 da bb 3d 3e 62 f6 bd a4 d6 df bd
       0.06850126 0.09172559 -0.12030457 -0.10929611
0002c0 0a 58 a5 3d 33 f4 b8 3d 08 8c ce 3d 1a 46 81 3d
       0.08073433 0.09030952 0.100853026 0.06312199
0002d0 fe c6 b2 3d 9d e1 a4 3d c9 7e ad 3d ac 3f b2 bd
       0.08729361 0.08050845 0.08471448 -0.08703551
0002e0 55 99 a4 3d a9 91 d3 3d 29 74 d9 3d 21 21 d6 bd
       0.08037058 0.10330517 0.10617859 -0.104555376
0002f0 53 54 87 3d c7 c4 9f bd d2 63 89 3d 3b 9c ad 3d
       0.066078804 -0.07801204 0.06708492 0.08477064
000300 b7 2f e9 bd 98 ca ef bd eb 31 95 3d 03 f3 bf bd
       -0.11386054 -0.117085636 0.07284912 -0.09372523
000310 b8 8e ac bd ad b5 f0 3d 7b 5a c2 bd bd a9 af 3d
       -0.08425659 0.11753402 -0.09489914 0.08577297
000320 57 cb cb bd 33 aa 8e 3d 76 d7 b5 3d 67 09 8b 3d
       -0.09950893 0.06966057 0.088789865 0.06788903
000330 a9 56 ab 3d 01 bb b5 bd 9f e9 c2 bd 24 25 ab bd
       0.083661385 -0.08873559 -0.09517216 -0.083566934
000340 b4 2f 9c bd f9 7d c4 3d 43 c7 01 be 03 da 09 be
       -0.07626286 0.0959434 -0.12673669 -0.13462071
000350 fb 03 ac 3b 19 a6 f5 bd f8 06 ef bd 8a 47 b8 bd
       0.005249498 -0.11994571 -0.11671251 -0.0899802
000360 58 9a ec bd ae 92 91 3d fd 07 a2 3d 1d b1 e0 bd
       -0.11552876 0.07108055 0.0791168 -0.10971282
000370 b8 fa d4 3d d3 07 bd bd cd de be bd 42 ec ea bd
       0.10399383 -0.09230008 -0.093198396 -0.11470844
000380 ee e3 ed bd 99 d9 92 3d df 7f de 3d 04 94 b8 bd
       -0.1161574 0.0717041 0.10864233 -0.09012607
000390 61 43 ec bd 93 6c c6 3d 08 33 9b 3d ad fe 13 be
       -0.11536289 0.09688678 0.07578093 -0.1445262
0003a0 58 57 ce bd af 66 f2 3d 2f b8 6c 3d f4 45 f6 bd
       -0.10075253 0.118359916 0.05779284 -0.12025061
0003b0 cc 8c 94 bd 26 04 a8 bd 6d 74 e2 bd b6 1b cd bd
       -0.072534174 -0.08203916 -0.11057363 -0.10015051
0003c0 87 2e e7 bd 50 c9 b5 bd 69 50 0b be 38 95 d2 bd
       -0.11288171 -0.08876288 -0.13604893 -0.102823675
0003d0 58 d5 a1 3d 40 ca f5 bd 8d df d7 3c a6 c1 a5 bd
       0.0790202 -0.12001467 0.026351715 -0.08093576
0003e0 1f 97 ca 3d 29 e4 dd bd 1f 99 e3 3d e5 08 9d bd
       0.09892105 -0.10834534 0.1111319 -0.07667712
0003f0 d1 51 ec 3d 37 78 90 3d 6d 3e 91 3d 31 ae a9 3d
       0.11539043 0.07054179 0.07091985 0.082851775
